examples/my_trained_model/model.pth (torch, 197706 bytes, 8 tensors)

layers.0.graph_conv.weight f4 [37, 200]
0	0x3d25f63a	0.040518023
1	0xbc35f46f	-0.011105641
2	0x3d2e6046	0.042572282
3	0x3d8ac9c4	0.06776765
4	0xbd6d17e1	-0.0578841
5	0x3d76d111	0.060257975
6	0x3dad91c1	0.08475066
7	0x3c511bee	0.012763007
8	0x3d0109c7	0.031503465
9	0xbceff761	-0.029292764
10	0x3cda2fb2	0.026634071
11	0xbcb7ae30	-0.022421926
12	0x3d92daeb	0.071706615
13	0x3cf1f28d	0.029534603
14	0x3d45f94d	0.048333455
15	0x3c4474de	0.011990754
16	0xbca2ad65	-0.019858072
17	0xbd90c4a0	-0.07068753
18	0x3d06e488	0.032932788
19	0x3c914679	0.0177338
20	0xbda08993	-0.0783874
21	0xbc9551bf	-0.018227456
22	0xbd0b911d	-0.034073938
23	0xbd2208a2	-0.039559014
24	0x3ddf67d0	0.109084725
25	0x3da2938e	0.079383
26	0x3d8498f1	0.06474484
27	0x3d5c1253	0.053728413
28	0xbd3477fb	-0.044059735
29	0xbd4c27b6	-0.04984256
30	0xbceedc4b	-0.029157778
31	0xbcc00146	-0.023438107
32	0x3d1f944c	0.038959786
33	0xb9861b5e	-0.00025578862
34	0xbb8d7faa	-0.0043181973
35	0x3d52c3b6	0.051456176
36	0x3c15a3da	0.009133304
37	0x3ce476c3	0.027888661
38	0xbc750d58	-0.014956795
39	0x3dd5732a	0.104223564
40	0x3d9c0c04	0.07619479
41	0x3d5f32a6	0.05449166
42	0x3d2ca7e7	0.04215231
43	0x3b965fcf	0.004589058
44	0x3d7dbd24	0.061947957
45	0x3cfb30a6	0.030662846
46	0x3cc085fe	0.023501392
47	0x3d4df251	0.05027992
48	0x3dbaf88d	0.091294385
49	0x3c2f43e5	0.01069734
50	0xbca05bb4	-0.019574977
51	0xbd1e3aa0	-0.038630128
52	0x3c20618f	0.009788885
53	0xbcae5caa	-0.02128442
54	0xbc664a0f	-0.014055743
55	0xbd091150	-0.033463776
56	0x3bf6c80a	0.0075311707
57	0x3da181a8	0.07886058
58	0xbad2c2a0	-0.0016079731
59	0xbd11f9ae	-0.035638504
60	0x3d9540fb	0.07287785
61	0xbb9fd1e0	-0.004877314
62	0x3bbb6a52	0.0057194615
63	0xbc725c64	-0.014792535
64	0x3dccd853	0.10002198
65	0x3d13a4b8	0.03604576
66	0x3e031a70	0.12803054
67	0x3d11dab4	0.035608962
68	0x3b975fab	0.004619559
69	0x3a83e684	0.0010063206
70	0xbc962dd4	-0.0183324
71	0x3c1abbbf	0.009444176
72	0xbbff9a2d	-0.0078003616
73	0x3bcc4d3c	0.006234793
74	0xbcfd5980	-0.030926466
75	0x3da69cae	0.08135353
76	0x3d86ad1f	0.06575989
77	0x3cecf544	0.028925546
78	0x3ccffce6	0.025389146
79	0x3e038650	0.12844205
80	0x3d66cb68	0.056346327
81	0xbd2a9d38	-0.04165384
82	0xbd9936dd	-0.074811675
83	0x3d780af8	0.060557336
84	0x3ab97ae3	0.0014151003
85	0xb99ebc58	-0.00030276435
86	0x3d704568	0.05865994
87	0xbd42d218	-0.047563642
88	0xbc34536f	-0.01100622
89	0x3dcaab13	0.09895911
90	0x3d068e08	0.032850295
91	0x3c9436c8	0.018092528
92	0x3d3ce39c	0.046115503
93	0x3d8b50a1	0.06802488
94	0xbc9fa875	-0.019489506
95	0x3a8ff766	0.0010983765
96	0xbd5beabc	-0.053690657
97	0xbcaedcd4	-0.021345533
98	0x3c618511	0.013764636
99	0x3cb8a411	0.02253917
100	0x3da96eff	0.08273124
101	0x3cb04164	0.021515556
102	0x3cf3e0b5	0.029770235
103	0xbcc67598	-0.024225995
104	0x3ccd15a0	0.025034726
105	0xbcf2d2fa	-0.029641617
106	0xbc447a42	-0.011992039
107	0x3cbc4fbe	0.022987243
108	0xbca2147b	-0.019785156
109	0x3dc7e624	0.09760693
110	0xbb3cb0a4	-0.002879181
111	0x3dbc95fe	0.09208296
112	0xbc3fa630	-0.011697337
113	0x3bf415b7	0.0074488777
114	0x3d10bb5a	0.035334922
115	0xbcb453f6	-0.022012692
116	0x3d8a7e60	0.06762385
117	0x3b017f3a	0.001975967
118	0x3d8d0e3b	0.0688748
119	0x3d9cb2df	0.076513045
120	0x3d982181	0.07428265
121	0x3d849f28	0.06475669
122	0x3d810fb7	0.063018255
123	0x3d6bc652	0.05756218
124	0x3e083583	0.13301663
125	0x3ce05144	0.0273825
126	0xbc883319	-0.016625928
127	0xbd4a1205	-0.04933359
128	0x3d39b67d	0.04534005
129	0xbd322881	-0.04349566
130	0xbd54a5e6	-0.051916026
131	0x3d1e97df	0.038719054
132	0xbd5f4b81	-0.054515366
133	0xbcc420a0	-0.023941338
134	0x3237deac	1.0702632e-08
135	0x3db9291c	0.09041044
136	0xbd6f2a70	-0.05839008
137	0xbbd28078	-0.006424006
138	0x3dbb3d56	0.09142558
139	0x3d987025	0.07443265
140	0xbd9a3142	-0.075289264
141	0x3d46d7d3	0.04854567
142	0xbc1476f4	-0.009061564
143	0xbc84f9d1	-0.016232403
144	0xbd4b1eea	-0.04959003
145	0x3cebba08	0.02877523
146	0xbcb3440b	-0.021883031
147	0x3c3a252d	0.011361402
148	0xbc9c9d45	-0.01911796
149	0x3d85cdd9	0.06533403
150	0xbc7b7d4e	-0.015349699
151	0x3b59b30f	0.00332183
152	0x3dc81ee8	0.0977152
153	0xbc16aef3	-0.009196985
154	0x3b87e41f	0.004147067
155	0x3d311fed	0.043243337
156	0x3def6b51	0.11690391
157	0x3cffdbec	0.031232797
158	0x3c606983	0.013697031
159	0xbc10dbcf	-0.008841469
160	0x3cd59fd9	0.026077198
161	0xbb2a22ef	-0.0025960763
162	0x3d37a759	0.04483733
163	0x3cc6dde2	0.024275724
164	0x3d6452ee	0.05574315
165	0x3dbfb19b	0.093600474
166	0x3d630b57	0.055430736
167	0xbd8ee4cc	-0.06977233
168	0x3c688f17	0.0141942715
169	0xbba9cbfa	-0.0051817866
170	0x3cac0069	0.02099629
171	0xbd59e45d	-0.0531963
172	0xbc83b1d2	-0.016076002
173	0xbd904d7b	-0.07046028
174	0x3da2f479	0.07956786
175	0xbd59c160	-0.053162932
176	0x3d88862a	0.06666215
177	0x3d2d8db1	0.042371456
178	0x3d5600dc	0.052246913
179	0x3c5552a3	0.01302019
180	0xbb5a2752	-0.0033287597
181	0x3d124745	0.0357125
182	0xbd3395e5	-0.043844122
183	0x3cf5a0a5	0.029983828
184	0x3d736a95	0.059427816
185	0xbd17520d	-0.036943484
186	0xbd0da934	-0.034585193
187	0x3d0b642b	0.034031074
188	0xbbc8e8c8	-0.0061312653
189	0x3ce40ae5	0.027837226
190	0x3da433c5	0.08017687
191	0x3cce86df	0.025210796
192	0x3d648417	0.055790033
193	0x3d07f69f	0.03319418
194	0x3dbbe4b1	0.09174479
195	0x3cb82d3a	0.022482503
196	0x3dffea86	0.12495904
197	0x3d7481ed	0.05969422
198	0x3dfcd9bc	0.12346217
199	0x3d99ff52	0.075194016
200	0x3d8bce75	0.06826488
201	0xbc28407b	-0.01026928
202	0x3d61e4b5	0.055149753
203	0x3d8c6be4	0.06856516
204	0x3b6c7da2	0.0036085625
205	0xb898b333	-7.281303e-05
206	0xbd17dc67	-0.037075426
207	0x3cbc32bc	0.02297341
208	0xbd38b642	-0.04509569
209	0x3afe5989	0.0019405346
210	0x3c9c109f	0.019050894
211	0xbb0e4e49	-0.0021714142
212	0x3d50f8a6	0.05101838
213	0x3d13981d	0.03603374
214	0x3d57e05c	0.0527042
215	0x3c3e1623	0.0116019575
216	0x3c199151	0.009373025
217	0x3d522f64	0.051314726
218	0x3c94641c	0.018114142
219	0x3c93f31a	0.018060256
220	0x3d057dd8	0.032590717
221	0xbc0f838e	-0.008759392
222	0x3d3f6f81	0.046737198
223	0xbc57908d	-0.013157022
224	0x3d662162	0.05618418
225	0x3d93515f	0.07193255
226	0x3d3bba98	0.045832247
227	0x3d2425fb	0.040075283
228	0x3d9582ec	0.07300362
229	0xbcef620f	-0.029221563
230	0xbc6d0f2c	-0.014468949
231	0x3d6a09d6	0.057138287
232	0x3c1111a8	0.008854307
233	0xb36b6837	-5.4809984e-08
234	0x3d00f915	0.031487543
235	0x3db95fb8	0.0905146
236	0x3cd84a01	0.026402475
237	0xbd1b2bcb	-0.03788356
238	0x3da0a339	0.07843632
239	0x3c0a7eb8	0.008453064
240	0x3d80b841	0.06285144
241	0x3c572dd8	0.013133489
242	0x3ce6aacb	0.028157612
243	0x3da19c6a	0.07891162
244	0x3c40c235	0.011765053
245	0x3c3ffa5c	0.011717405
246	0x3cbe7c50	0.023252636
247	0x3ddc6538	0.107614934
248	0x3d8e429c	0.069462985
249	0x3cf9c4f4	0.030489422
250	0xbc1294f7	-0.008946649
251	0x3bfc2d4d	0.00769583
252	0xba4490d1	-0.0007498386
253	0xb90615c2	-0.00012787341
254	0xbc95e8ae	-0.018299427
255	0x3c456f53	0.012050468

layers.0.graph_conv.bias f4 [200]
0	0x3cbc3a15	0.022976914
1	0x3bd01b07	0.006350878
2	0x3c9cee6a	0.019156653
3	0x3d3a3213	0.04545791
4	0x3d165702	0.03670407
5	0x3d19d19e	0.037553422
6	0x3cc391c1	0.023873212
7	0x3bc57200	0.0060255527
8	0x3b642565	0.0034812328
9	0x3d9088f4	0.07057372
10	0x3d65d756	0.056113563
11	0x3d3fb8a7	0.046806958
12	0x3cd451a0	0.025917828
13	0x3c8610b0	0.01636538
14	0x3d23434e	0.03985911
15	0x3c57c33e	0.013169108
16	0x3bc1b47f	0.0059114094
17	0x3c961660	0.018321216
18	0x3d779152	0.060441323
19	0xb9b3efde	-0.00034320256
20	0x3d17b5f5	0.037038762
21	0x3d0c7a03	0.034296047
22	0x3c2e4b57	0.01063808
23	0x3d0e0a1b	0.034677606
24	0x3d03a528	0.032139927
25	0x3d296d36	0.041363917
26	0x3d0d578b	0.034507316
27	0x3d75954e	0.05995684
28	0x3bd69844	0.006548913
29	0x3bb3c72e	0.0054863906
30	0x3cb4aa8d	0.022053981
31	0x3d419605	0.04726221
32	0x3d8cc9fa	0.068744615
33	0xbb6529a0	-0.0034967437
34	0x3cf924e9	0.030413108
35	0x3cb47b6f	0.022031514
36	0x3d3ffcbb	0.046871882
37	0x3c8afa38	0.016965017
38	0x3d3c2814	0.04593666
39	0x3c0d8c38	0.008639388
40	0x3c30fbab	0.01080219
41	0x3cd96352	0.026536617
42	0x3c873a61	0.01650733
43	0x3bfa487f	0.0076380367
44	0x3cc6d6ff	0.02427244
45	0x3ca8fa14	0.020627059
46	0x3cfc95e4	0.030833192
47	0x3cf5d22c	0.030007444
48	0x3c9995d9	0.01874821
49	0x3ca5fbb8	0.02026163
50	0x3c8c2fc5	0.017112622
51	0x3bfd1d4c	0.0077244397
52	0x3d028587	0.031865623
53	0x3ca27040	0.019828916
54	0x3cebca03	0.02878285
55	0x3d0a3eef	0.033751424
56	0x3c2bebb4	0.010493208
57	0x3d0d4b36	0.034495555
58	0x3d3b8479	0.045780633
59	0x3d82128f	0.06351196
60	0x3cc5f81d	0.024166161
61	0x3c4786d5	0.012178143
62	0x3cd00aea	0.02539583
63	0x3c215c0d	0.009848607
64	0x3d7f40e2	0.062317736
65	0x3d81e417	0.06342333
66	0x3cb67f01	0.022277357
67	0x3cdfa130	0.02729854
68	0xbca8552a	-0.020548422
69	0x3cc6a8d5	0.024250427
70	0x3d03b6ec	0.03215687
71	0x3d565e0a	0.052335776
72	0x3d0e5fa9	0.034759197
73	0x3d788d30	0.060681522
74	0x3cd5cd15	0.026098767
75	0x3c306409	0.010766038
76	0x3d61e9c1	0.055154566
77	0x3d4eba64	0.050470725
78	0x3b20d148	0.0024538804
79	0x3c0d4814	0.008623142
80	0x3d5cd1d2	0.053911038
81	0x3cd69389	0.026193397
82	0x3d632ca7	0.055462506
83	0x3cd1eac8	0.025624648
84	0x3ca26dff	0.01982784
85	0xbb852cb0	-0.004064165
86	0x3c823dc3	0.01589859
87	0x3cf22dea	0.02956291
88	0x3d5df485	0.05418827
89	0x3d2f2348	0.042758256
90	0x3d6ff0c4	0.05857922
91	0x3c56ffd3	0.013122517
92	0x3d55b877	0.052177873
93	0x3c3b385b	0.01142701
94	0x3d83a0a9	0.06427128
95	0x3d8b6d8f	0.06808006
96	0x3cc2aec0	0.023764968
97	0x3d263cd8	0.04058537
98	0x3903a651	0.00012555091
99	0x3d10c702	0.03534604
100	0x3c682b5b	0.014170493
101	0x3d28c052	0.041199036
102	0x3cb6735e	0.022271808
103	0x3b6f6d29	0.003653357
104	0x3cab76ad	0.020930612
105	0x3c0c646a	0.008568862
106	0x3ca61b93	0.02027682
107	0x3ccc3893	0.02492932
108	0x3c96c0ad	0.018402422
109	0x3c39379c	0.011304762
110	0x3cbc3a4c	0.022977017
111	0x3d0d7af1	0.034541074
112	0xba2c73c4	-0.000657853
113	0x3cdf73ac	0.027276836
114	0x3d8347c1	0.0641017
115	0x3d23b1d5	0.039964516
116	0x3d080df9	0.03321645
117	0x3ce3ccff	0.02780771
118	0x3ce268c3	0.027637845
119	0x3d52af18	0.051436514
120	0x3cdd5a8d	0.027020717
121	0x3d05abdd	0.032634605
122	0x3d0eb07a	0.03483627
123	0x3cdea1dd	0.027176792
124	0x3ca9f355	0.020745913
125	0x3c27be8a	0.010238299
126	0x3b21e88a	0.0024705254
127	0x3d65318f	0.055955466
128	0x3d4a921e	0.049455754
129	0x3cc38248	0.023865834
130	0x3d69eeef	0.05711263
131	0x3c19ffb8	0.009399347
132	0x3ab5c7b6	0.0013868723
133	0xb8547862	-5.0656854e-05
134	0xbc99e7de	-0.01878732
135	0x3cdd2152	0.026993427
136	0x3d4a5714	0.04939945
137	0x3b37b22e	0.0028029787
138	0x3d495825	0.049156327
139	0x3cccd384	0.025003202
140	0x3cc64ace	0.024205592
141	0x3c946599	0.018114852
142	0x3b8da74c	0.004322922
143	0x3c89460c	0.016757034
144	0x3bcef9c4	0.0063163955
145	0xbc28bad5	-0.0102984505
146	0x3c3d17f5	0.011541356
147	0x3ce02eb8	0.027366027
148	0x3d7cf504	0.061757103
149	0x3cb10f01	0.0216136
150	0xbc83d0a8	-0.016090706
151	0x3d52f1ca	0.05150012
152	0x3d681a68	0.056665808
153	0x3d8e3ca3	0.06945159
154	0xbc0fb7b3	-0.008771825
155	0x3d6c08db	0.057625633
156	0x3d437204	0.047716156
157	0x3d33b06e	0.04386943
158	0x3d203036	0.039108478
159	0x3c112f8f	0.0088614365
160	0x3d1d49e6	0.038400553
161	0x3ce81384	0.028329618
162	0x3cc3c212	0.02389625
163	0x3b9f0c30	0.004853748
164	0x3cc591d9	0.024117397
165	0x3ce16262	0.027512733
166	0x3d68634c	0.056735322
167	0x3bc317d4	0.0059537683
168	0x3d0621a4	0.032746926
169	0x3cb125e8	0.02162452
170	0x3cbd0b5c	0.023076706
171	0x3c869306	0.016427528
172	0x3d34c754	0.044135407
173	0x3c943e91	0.01809624
174	0x3d1606c7	0.036627557
175	0x3d450a3b	0.04810546
176	0x3cc25fd8	0.023727342
177	0x3cc7ca2b	0.024388393
178	0x3d5631eb	0.0522937
179	0x3c4af3aa	0.012387196
180	0x3cfda45b	0.03096216
181	0x3ca74a17	0.020421071
182	0x3cf3bed9	0.02975409
183	0x3d17fbde	0.037105434
184	0x3d2285d8	0.039678425
185	0x3d042034	0.032257274
186	0x3d4765df	0.048681136
187	0x3acd0ea8	0.0015644627
188	0xba852611	-0.0010158439
189	0x3d3470dc	0.044052944
190	0x3d1f5451	0.03889877
191	0x3d4013c0	0.046893835
192	0x3d3692f2	0.04457373
193	0x3dcfc455	0.10144869
194	0x3d30e004	0.043182388
195	0x3d637628	0.055532604
196	0x3c9157dc	0.01774209
197	0xbbb9fc77	-0.005675848
198	0x3d85be77	0.06530469
199	0x3d8e086c	0.069352

layers.1.graph_conv.weight f4 [200, 200]
0	0x3d5903b9	0.052982066
1	0x3ccd4109	0.025055425
2	0x3da0d3f1	0.078529246
3	0x3dd4764a	0.10374124
4	0xbd116209	-0.035493884
5	0x3d4d5783	0.050132286
6	0x3d5a293d	0.053261984
7	0x3d5b1a3e	0.053491823
8	0xbd93af74	-0.072111994
9	0xba968ced	-0.0011486091
10	0x3ddc4461	0.1075523
11	0x3dae2a3f	0.085041516
12	0xbb1684c8	-0.0022967327
13	0x3d59910e	0.05311685
14	0xbcccc0a2	-0.024994198
15	0xbca76d97	-0.020437999
16	0x3daf9676	0.0857362
17	0x362543e0	2.4626424e-06
18	0xbd40498d	-0.046945143
19	0x3d00871a	0.031378843
20	0x3c655f73	0.013999808
21	0xbd5829f0	-0.05277437
22	0xbb5dcd46	-0.0033844276
23	0x37ae5d86	2.0785967e-05
24	0x3d98a8b4	0.074540526
25	0x3d6d9ae4	0.058009043
26	0xb10e1880	-2.0677646e-09
27	0x3dee48b1	0.116349585
28	0x3d1fc406	0.039005302
29	0x3d2ef176	0.042710744
30	0x3d5c9eae	0.053862266
31	0xbba20db2	-0.0049454803
32	0x3d881a18	0.06645602
33	0x3de76bfb	0.112998925
34	0xbba9df57	-0.005184095
35	0x3398fc0c	7.1238986e-08
36	0x3d488fb2	0.048965164
37	0xb48dc846	-2.6409015e-07
38	0x3d829e63	0.06377866
39	0x3dcd90f9	0.10037417
40	0xbc8ccba1	-0.017186942
41	0x3d5f1858	0.054466575
42	0xb537c4b7	-6.845907e-07
43	0xbbddfa5c	-0.00677423
44	0xbd233a80	-0.03985071
45	0xbd103fa4	-0.035216942
46	0xba0ab035	-0.0005290539
47	0x3ce66d1a	0.028128196
48	0x3d0f122d	0.034929443
49	0xbd3a5c8a	-0.04549841
50	0x3cd8ebcb	0.026479622
51	0x33994179	7.136527e-08
52	0x35f14fdc	1.7979141e-06
53	0x3d14ad5f	0.036298152
54	0x3dde9b53	0.108694695
55	0xba95ff43	-0.0011443872
56	0x3d096f5b	0.033553462
57	0x3c8c6060	0.017135799
58	0xb483d0fe	-2.4552713e-07
59	0x3d1527da	0.03641496
60	0xbcce615e	-0.025192913
61	0xbd25207a	-0.040314175
62	0xb3dd9d05	-1.0319676e-07
63	0x3d7f26ae	0.062292747
64	0xb9ce2484	-0.00039318588
65	0x3bf7c2b7	0.0075610536
66	0x3d1e2f31	0.038619224
67	0x3df873cd	0.12131462
68	0xbc6ea07d	-0.014564631
69	0xbd3e1f35	-0.04641648
70	0xbbd26690	-0.006420918
71	0x3d38e3b3	0.045139026
72	0x3d91b2d6	0.071141884
73	0x358930e7	1.0221528e-06
74	0x3ca5818a	0.02020337
75	0x3be89d60	0.0070988387
76	0xbb5335fa	-0.0032228217
77	0xb9a05226	-0.00030578783
78	0xb9a8af29	-0.00032173962
79	0x3dbe38d9	0.092881866
80	0x34f85a3c	4.6259254e-07
81	0x3d23273c	0.03983234
82	0xbcb99f0e	-0.022658851
83	0xbca808cc	-0.020512007
84	0x3dbc7bbe	0.092032894
85	0x3d81e6b0	0.06342828
86	0x3d0c417a	0.03424213
87	0x3d290c7d	0.041271675
88	0xbcb92e32	-0.022605035
89	0xbcd3ddc9	-0.025862591
90	0xbd1c2973	-0.038125467
91	0xbd35667b	-0.044287186
92	0x3d1c7e34	0.038206294
93	0xbcec2833	-0.028827762
94	0x3dd06669	0.10175783
95	0x3d7a5fc4	0.061126485
96	0x3d07d6cd	0.033163834
97	0x3d4fce4c	0.05073385
98	0xbbe8cab2	-0.0071042413
99	0xb9f33f59	-0.0004639577
100	0xbb749c3c	-0.0037324568
101	0x3c23e3ca	0.01000304
102	0x3d1df898	0.038567156
103	0xb9b4e75d	-0.00034504654
104	0xbd363e40	-0.04449296
105	0x3c7d3f2c	0.015456956
106	0x3b12b458	0.0022385325
107	0xbd4de588	-0.050267726
108	0xbb0fc21f	-0.0021935774
109	0x33072576	3.1466207e-08
110	0x3dc7e510	0.09760487
111	0x341a6111	1.437768e-07
112	0xbc928db9	-0.017889844
113	0x3d60817c	0.054810986
114	0x3cb1e2fd	0.021714682
115	0x3c5dbfa6	0.013534462
116	0x3d30e0cc	0.043183133
117	0xbb62ab85	-0.0034587097
118	0x3d9e353d	0.07724998
119	0x3d7ee28a	0.062227763
120	0x3c5c07dc	0.013429608
121	0xbc6cd943	-0.014456096
122	0xbbca0ec1	-0.0061663096
123	0xbcbea59c	-0.023272328
124	0xb8db2195	-0.00010448989
125	0xb42a5233	-1.5862388e-07
126	0xbd0fe3a3	-0.0351292
127	0x3d479797	0.04872855
128	0x3cab0ea1	0.020880999
129	0x3ca00c3e	0.019537088
130	0x3d8e6b0e	0.06954013
131	0xb6458951	-2.9435216e-06
132	0x3de9174c	0.11381397
133	0x3d34a354	0.044101074
134	0xbd0cfd2a	-0.034421124
135	0x3d602a63	0.054727923
136	0xb9f65f9e	-0.00046992017
137	0xbc43407b	-0.011917229
138	0xbb433192	-0.0029784185
139	0xbc8d29e8	-0.017231897
140	0x3d6a26ba	0.05716584
141	0xb8900eb8	-6.869197e-05
142	0xbca90c00	-0.020635605
143	0x3d63ff0e	0.05566316
144	0x3d84b3b0	0.06479585
145	0x3d0de4a3	0.034641873
146	0xbd1a0680	-0.037603855
147	0x3dd605dc	0.10450336
148	0x3da2bce6	0.07946186
149	0x3c20128c	0.009770047
150	0x3d316540	0.04330945
151	0x3d1cba42	0.038263567
152	0xbd1d80f1	-0.038453046
153	0xbcb8604b	-0.022506854
154	0x3d07475b	0.033027034
155	0xbc8d8d8c	-0.017279409
156	0x3d9659e5	0.07341365
157	0x3d913b92	0.0709144
158	0x37c53c72	2.3512377e-05
159	0xb74e9ed8	-1.23155405e-05
160	0xbd08a2a6	-0.03335824
161	0xbccb48a1	-0.024814906
162	0x3c1268a0	0.008936077
163	0xbc3abf60	-0.011398166
164	0x3dee69e0	0.11641288
165	0x3de900e8	0.11377126
166	0x3ca63277	0.020287735
167	0xbda9aa6a	-0.08284457
168	0xba016f3a	-0.00049375335
169	0x3572d191	9.0456984e-07
170	0xbc4b5e5f	-0.012412637
171	0x3d198a25	0.03748526
172	0x3c31c054	0.010849077
173	0x3dba269e	0.09089397
174	0xbc90c2a3	-0.017670935
175	0x3d66bab1	0.056330387
176	0xbaad2c8e	-0.0013212131
177	0x3ca50f88	0.020149007
178	0xb74e27e8	-1.2287848e-05
179	0xbce34f6f	-0.027747838
180	0x3cf219ba	0.029553283
181	0x3d6c5d6d	0.057706285
182	0x3c114659	0.00886687
183	0x3d8cff2c	0.06884608
184	0x3d88c6e0	0.066785574
185	0x37609605	1.338637e-05
186	0xbc626db9	-0.013820105
187	0xbd467f46	-0.04846122
188	0xbc7363af	-0.014855309
189	0x3c97eca7	0.018545462
190	0x3a92cc89	0.0011199872
191	0xbd391587	-0.045186546
192	0xbca2267d	-0.019793743
193	0x3d6ce732	0.057837673
194	0x35331fee	6.672916e-07
195	0xbc2a2089	-0.010383734
196	0xbb9c304e	-0.0047665006
197	0xbcdcfe1f	-0.026976643
198	0x3d5680f2	0.052369066
199	0xbca69210	-0.02033332
200	0xbb568317	-0.0032731944
201	0xbcc4f0d8	-0.024040624
202	0x3cd39147	0.02582611
203	0xbd3e8acc	-0.046519086
204	0x3d6aab2a	0.05729214
205	0xbce2d6ac	-0.027690254
206	0xbd46369b	-0.04839192
207	0x3c8f83c6	0.01751889
208	0x3d676007	0.056488063
209	0x32294320	9.852357e-09
210	0xbd36924f	-0.044573124
211	0xbd0b9488	-0.034077197
212	0x3796d9de	1.7982846e-05
213	0xbd1025ef	-0.035192426
214	0x3d874083	0.066041015
215	0xbcd92833	-0.026508426
216	0xba980e2f	-0.0011600907
217	0xb3c05d8c	-8.957713e-08
218	0x3d7e8329	0.062136803
219	0x3be5ec53	0.0070166974
220	0x3d7d1781	0.061789993
221	0x3d7341d6	0.059388958
222	0x3b62ef4a	0.003462749
223	0xb2c9b390	-2.3481135e-08
224	0xbcf617ad	-0.030040586
225	0x3d00fe18	0.031492323
226	0x3284db7f	1.5466638e-08
227	0xbce09813	-0.027416265
228	0xbc96929f	-0.018380461
229	0x3c1fe882	0.009760024
230	0xbcfb8cff	-0.03070688
231	0x3d194d61	0.03742731
232	0xbd546beb	-0.05186073
233	0x3cf0543d	0.029337043
234	0x3b5db9a6	0.003383258
235	0xb37ff9cc	-5.9599003e-08
236	0xbbd98926	-0.006638664
237	0xb2e66d25	-2.6825157e-08
238	0xbc4ef11e	-0.012630729
239	0xbcbe55c4	-0.023234256
240	0x3d734f67	0.059401896
241	0xbd027e00	-0.031858444
242	0xb249a78c	-1.1737836e-08
243	0x3d145ae7	0.036219504
244	0x3d879d10	0.06621754
245	0x3d641fab	0.055694263
246	0x340b54f4	1.297629e-07
247	0xbc8715ff	-0.01648998
248	0x3d38c393	0.04510839
249	0x3d8f8c0f	0.07009136
250	0x3cce26c9	0.025164979
251	0x339b6c94	7.2375e-08
252	0x342648e7	1.5486476e-07
253	0xbd45942f	-0.048237022
254	0xbcc6dbbb	-0.024274698
255	0xb3c407c7	-9.128376e-08

layers.1.graph_conv.bias f4 [200]
0	0x3d0d3ea4	0.034483567
1	0x3cc417dd	0.02393716
2	0x3d94d3d5	0.07266966
3	0x3ccd0100	0.02502489
4	0x3c86c091	0.016449245
5	0x3c9bd608	0.019022956
6	0x3cecf2aa	0.028924305
7	0x3da573dd	0.0807874
8	0x3c944e72	0.018103812
9	0xbc1c7f7d	-0.00955188
10	0x3cd7c5f1	0.026339503
11	0x3cd9b431	0.02657518
12	0xbc0a9c95	-0.008460184
13	0x3c6c1dd8	0.014411412
14	0x3d3d9a3a	0.04628966
15	0x3c37e4a0	0.011223942
16	0x3d22fe29	0.039793167
17	0xbb3687f2	-0.0027852026
18	0x3cfc66d4	0.030810751
19	0x3d49e1bb	0.04928754
20	0x3c9034c6	0.01760329
21	0x3cc781ad	0.024353826
22	0x3c04b86a	0.008100608
23	0xbc678635	-0.014131119
24	0x3cbdde1a	0.023177195
25	0x3dbfa1e9	0.09357054
26	0xb7b86b35	-2.1984431e-05
27	0x3cbcab44	0.023030885
28	0x3cb03edd	0.02151435
29	0x3d44fd4a	0.048093118
30	0x3887879a	6.4625594e-05
31	0x3ca37d4f	0.019957213
32	0x3cb7130b	0.022347948
33	0x3db0ab3c	0.0862641
34	0x3c035c65	0.008017634
35	0xb9c8c7c5	-0.00038295813
36	0xbb1c8ad0	-0.002388645
37	0xba37f2a7	-0.0007017054
38	0x3d00f090	0.03147942
39	0x3cd5256c	0.02601882
40	0x3c564d02	0.0130798835
41	0x3c6830ff	0.014171838
42	0xbb5fcf8a	-0.0034150803
43	0x3cce3bf5	0.025175074
44	0x3ce6b666	0.028163146
45	0x3cae1921	0.021252217
46	0xbb440e08	-0.002991559
47	0xba24ba9f	-0.0006283912
48	0x3d89a2a9	0.06720478
49	0x3ca5545c	0.020181827
50	0x3dc28cad	0.09499488
51	0xba48bdcf	-0.0007657678
52	0xbbacaa97	-0.0052693593
53	0x3cb7344f	0.02236381
54	0x3d003f8e	0.03131061
55	0xbb3e222d	-0.002901207
56	0x3c89324c	0.016747616
57	0x3cc358be	0.023846027
58	0xba7d8208	-0.000967056
59	0x3db7fd72	0.08983888
60	0x3d082add	0.033244003
61	0x3d8909b1	0.066913016
62	0xb8447c20	-4.6845642e-05
63	0x3d43a5b9	0.047765467
64	0xbb7c3963	-0.0038486354
65	0x3b8aca15	0.004235516
66	0x3c6aeb7c	0.01433837
67	0x3cdc6ef2	0.026908372
68	0x3cc374b3	0.023859357
69	0x3cf873ac	0.030328594
70	0x3cd637e4	0.026149698
71	0x3dafba37	0.085804395
72	0x3d2bf499	0.041981313
73	0xba7b9a41	-0.0009597876
74	0x3db7b04e	0.08969174
75	0x3d031d37	0.032010283
76	0xbc42a00c	-0.011878978
77	0xbba94a92	-0.00516636
78	0xbc320d11	-0.010867373
79	0x3d35d009	0.04438785
80	0xba7441d2	-0.00093176693
81	0x3d47ffb9	0.04882786
82	0x3c77687d	0.015100596
83	0x3c87c699	0.01657419
84	0x3d0de3a8	0.034640938
85	0x3caa5b42	0.020795468
86	0x3bf82b42	0.007573516
87	0x3dac06a1	0.08399702
88	0x3b729147	0.0037012862
89	0x3d0a6340	0.03378606
90	0x3c121d6f	0.00891815
91	0x3bb287b5	0.0054483064
92	0x3d12eda3	0.03587116
93	0x3bfb0eff	0.0076617
94	0x3cddad2e	0.027060118
95	0x3d05c40a	0.03265766
96	0x3cc4c752	0.024020825
97	0x3dcabb5e	0.09899019
98	0x3c4e02e1	0.012573929
99	0xbc192790	-0.009347811
100	0x3d4bc005	0.04974367
101	0x3d86456e	0.065562114
102	0x3d86c290	0.065800786
103	0xbb495c4f	-0.0030725186
104	0x3d8f7f96	0.07006757
105	0x3d9e8f0d	0.077421285
106	0x3a545d7c	0.00081010885
107	0x3cd52df8	0.026022896
108	0xbc16db40	-0.009207547
109	0xba0fd5b2	-0.000548686
110	0x3c86ab4f	0.016439108
111	0xba46f309	-0.00075893156
112	0x3d02378e	0.031791262
113	0x3cfa4bbf	0.030553697
114	0x3d19ff10	0.037596762
115	0x3d13bd15	0.036068995
116	0x3ca6c5b2	0.02035794
117	0xbbe8a522	-0.0070997635
118	0xba43dc67	-0.0007471502
119	0x3cde8e4a	0.027167458
120	0x3d96d2d0	0.07364428
121	0x3d41bd3e	0.047299616
122	0x3d16a8d4	0.0367821
123	0x3cac2a4a	0.021016259
124	0xbbb21b7f	-0.0054354067
125	0xb9e891da	-0.00044359156
126	0x3cfd8196	0.03094558
127	0x3d2393a7	0.039935734
128	0x3d8a2791	0.06745828
129	0x3da39e7b	0.07989212
130	0x3d5d5f81	0.054046158
131	0xbb8ca56b	-0.0042921803
132	0x3ca54d7d	0.02017855
133	0x3d174dbd	0.03693937
134	0x3d1051c6	0.035234235
135	0x3c58e1b0	0.013237402
136	0x3a20a937	0.00061287306
137	0x3c98f6c5	0.018672356
138	0x3b360e0c	0.0027779369
139	0x3c15f975	0.0091537135
140	0x3c310f68	0.010806896
141	0xbc0da67d	-0.008645651
142	0x3cd88a45	0.02643312
143	0x3dcbadb7	0.09945243
144	0x3d9f4962	0.077776685
145	0x3ce93aa4	0.028470345
146	0x3c51d505	0.0128071355
147	0x3d38894e	0.04505282
148	0x3cebfd95	0.02880744
149	0x3c88cf2d	0.016700352
150	0x3d88913e	0.06668328
151	0x3ddc0644	0.107433826
152	0x3c56e9a4	0.013117228
153	0x3d047f9e	0.032348268
154	0x3cafe8b3	0.021473264
155	0x3d9169ef	0.07100283
156	0x3ce20636	0.027590852
157	0x3ca82501	0.020525457
158	0xbbd86190	-0.006603427
159	0xbbabd2f5	-0.005243654
160	0x3ca7faaf	0.020505277
161	0x3caa721d	0.020806367
162	0x3c48c050	0.012252882
163	0x3c9006b5	0.017581323
164	0x3c873b5e	0.0165078
165	0x3cfa9386	0.030587923
166	0x3cb149f5	0.02164171
167	0x3c80dcc6	0.015730273
168	0xbb95aaad	-0.0045674653
169	0xbb21e19c	-0.0024701124
170	0xbb298e03	-0.0025872
171	0x3d40f089	0.047104392
172	0xbbcb95d7	-0.0062129307
173	0x3ce7adf2	0.028281186
174	0x3cd1353d	0.025538081
175	0x3d9d29fe	0.07674025
176	0xbbded691	-0.0068004807
177	0x3d8ec54c	0.06971225
178	0xbbc5f3ce	-0.0060410267
179	0x3cac1528	0.021006182
180	0x3c3ad1d5	0.011402567
181	0x3c4ab3e3	0.01237199
182	0x3d7c675c	0.06162201
183	0x3d139921	0.036034707
184	0x3cb53a2e	0.022122469
185	0xbb2bfd0f	-0.0026243364
186	0x3d0baa60	0.03409803
187	0x3cb9ce98	0.02268152
188	0x3ce43c6e	0.027860846
189	0x3dca1857	0.09867924
190	0x3c66cc37	0.014086775
191	0x3cc7b25a	0.024377037
192	0x3d585f28	0.052825123
193	0x3d187bd7	0.037227478
194	0xba2af9ba	-0.00065221975
195	0x3d071dad	0.032987285
196	0xbc277e3f	-0.0102229705
197	0x3cdae224	0.02671916
198	0x3c8436e8	0.016139463
199	0x3ce4b2ca	0.027917285

pool1.graph_pool.gnn.lin_l.weight f4 [1, 200]
0	0x3d9c661e	0.07636665
1	0x3d5ae520	0.053441167
2	0x3d08a601	0.03336144
3	0x3d8a6956	0.067583725
4	0xbd568b1a	-0.05237875
5	0x3da1e8b5	0.079057135
6	0x3dcfc44e	0.10144864
7	0x3bdf7869	0.006819774
8	0xbdc9dcf9	-0.098566
9	0x3ad59e58	0.00162978
10	0x3d8c9691	0.06864656
11	0x3daad221	0.0834086
12	0xbbf244f8	-0.0073934756
13	0x3cfc4f78	0.030799612
14	0xbdc3b81c	-0.095566005
15	0x3d813460	0.06308818
16	0x3d35417c	0.044251904
17	0xbb4dbf39	-0.0031394495
18	0xbd45ad8b	-0.048261207
19	0xbc79fe3e	-0.01525837
20	0xbdae3899	-0.08506889
21	0xbdc963fc	-0.09833524
22	0xbb44763b	-0.0029977697
23	0x3c7ae44e	0.015313221
24	0x3dadf276	0.084935114
25	0x3bc2bdb6	0.0059430255
26	0x3b1889e1	0.0023275542
27	0x3d1359b9	0.035974238
28	0x3c955516	0.018229049
29	0xbc9562b1	-0.018235536
30	0xbc95ad7f	-0.018271206
31	0xbd828cfd	-0.06374548
32	0x3dc376f2	0.095441714
33	0x3c4884e5	0.012238716
34	0x3aa5b7b9	0.0012643255
35	0xbb0e05c9	-0.0021670929
36	0x3d8a6ad2	0.067586556
37	0xbacbd2ec	-0.001555053
38	0x3d6d73dd	0.057971824
39	0x3d717b02	0.0589552
40	0xbdcf3bcd	-0.10118828
41	0x3d81c151	0.063357
42	0x39fbdee6	0.00048040523
43	0xba942c16	-0.0011304643
44	0xbdc8e675	-0.09809581
45	0xbd44b6a2	-0.048025735
46	0xbb40cfe8	-0.0029420797
47	0x3d8b3aaf	0.067983024
48	0xbd045519	-0.032307718
49	0xbe00d0ac	-0.12579602
50	0xbc083437	-0.00831323
51	0x3ae3964c	0.0017363518
52	0xb9c53548	-0.00037614466
53	0x3da51944	0.0806146
54	0x3d1aa653	0.037756275
55	0x3a65dea4	0.0008768833
56	0xbdc9c3d4	-0.098518044
57	0xbdd264cf	-0.10273134
58	0xb21595d8	-8.707012e-09
59	0xbcc4cafb	-0.02402257
60	0xbd9a78cc	-0.075425714
61	0xbd1faf0d	-0.0389853
62	0x3a0829a4	0.0005194193
63	0x3d057098	0.03257808
64	0xbb4350b1	-0.0029802734
65	0x3d03d3d3	0.032184433
66	0x3d6c3179	0.05766437
67	0x3d69a784	0.05704452
68	0xbdb73024	-0.08944729
69	0x3d891424	0.06693295
70	0x3d8adc25	0.067802705
71	0xbb81f503	-0.0039659753
72	0xbca5fa67	-0.020261003
73	0xba5cb943	-0.000841994
74	0xbc9df07a	-0.019279707
75	0xbdb3ca84	-0.08778861
76	0x3c064f83	0.008197668
77	0xbb6032c1	-0.003420994
78	0xbc07708e	-0.008266581
79	0x3d055044	0.03254725
80	0xbb2d9b2b	-0.0026490192
81	0xbd7403a2	-0.059573777
82	0x3dc25161	0.09488178
83	0xbd1e09d8	-0.038583606
84	0x3d9cd817	0.07658403
85	0x3db6499f	0.08900761
86	0x3d9eab3b	0.07747503
87	0xbd40a404	-0.047031417
88	0xbd6dc5f6	-0.05805012
89	0x3dde2706	0.10847287
90	0xbc9cce86	-0.019141447
91	0xbd96719a	-0.073458865
92	0x3d53db94	0.051723078
93	0xbd579b3c	-0.052638277
94	0x3c251691	0.010076181
95	0x3d9dfd05	0.07714275
96	0x3d652874	0.055946782
97	0xbbde2199	-0.0067789075
98	0x3ca6c19d	0.020355994
99	0xbb5ce6d4	-0.003370692
100	0xbd6e4e03	-0.058179867
101	0xbd5599de	-0.052148692
102	0xbd17ddca	-0.03707675
103	0xbb24b377	-0.0025131383
104	0xbd3e7b9b	-0.046504598
105	0xbd14d8fe	-0.036339752
106	0x3d9a43de	0.07532476
107	0xbdbb9b03	-0.091604255
108	0x3bd9fd47	0.0066525075
109	0xbb17565c	-0.0023092246
110	0x3c449702	0.011998894
111	0x3a2a9b02	0.00065080833
112	0x3c17199e	0.009222416
113	0x3c94cf6c	0.018165313
114	0xbdaabb49	-0.08336503
115	0x3d7a0ab3	0.06104536
116	0x3bd0d774	0.0063733403
117	0x3a6165b0	0.00085982215
118	0x3d79770d	0.06090455
119	0x3d095327	0.033526566
120	0xbbd94082	-0.0066300044
121	0xbd7e6ed6	-0.06211742
122	0xbdd5c17b	-0.10437294
123	0xbdd3c4c7	-0.10340267
124	0xba48d04a	-0.0007660432
125	0xbb27b8a3	-0.002559223
126	0xbcf51575	-0.029917458
127	0x3d2bc926	0.041939877
128	0xbcb7dd44	-0.022444375
129	0xbd8e5089	-0.069489546
130	0xbc8cc556	-0.01718394
131	0xbb2613fb	-0.00253415
132	0x3de22ec0	0.11044073
133	0xbbb19b0a	-0.0054200934
134	0xbdbad027	-0.09121733
135	0x3da0ad80	0.078455925
136	0xba6d2e1a	-0.0009047702
137	0x3d9b668f	0.07587921
138	0xbc2147d8	-0.009843789
139	0xbd3a956c	-0.045552656
140	0x3d850854	0.06495729
141	0xbb56bf0f	-0.0032767688
142	0x3daaa1b4	0.08331624
143	0xbcc25191	-0.023720535
144	0xbd91ddd3	-0.07122388
145	0x3b1dbc78	0.0024068635
146	0xbdc96cc2	-0.09835197
147	0xbcad214f	-0.021134047
148	0x3d9568c7	0.07295375
149	0xbdb7dd26	-0.089777276
150	0xbd15efce	-0.03660565
151	0x3b893a2d	0.0041878433
152	0xbdc7dce0	-0.097589254
153	0xbd24789d	-0.04015409
154	0xbcd34a09	-0.025792139
155	0xbd62f449	-0.05540875
156	0x3d9e50f2	0.07730283
157	0x3c4006ce	0.011720372
158	0x3bd8e1df	0.006618723
159	0xba2de286	-0.0006633181
160	0xbdd9f860	-0.10643077
161	0xbd11e130	-0.035615146
162	0xbdb818fe	-0.08989142
163	0xbc7c7cf7	-0.015410653
164	0x3dc62152	0.09674324
165	0x3daf3328	0.08554679
166	0xbdf0901e	-0.11746238
167	0xbddfc4a3	-0.10926177
168	0x3b51d20d	0.003201607
169	0xbb0b89b5	-0.0021291797
170	0x3b607795	0.0034250964
171	0x3cae5689	0.021281498
172	0xbc944884	-0.018100984
173	0x3dacadef	0.08431613
174	0x3d6f2794	0.058387354
175	0xbc2f36ba	-0.0106942
176	0x3c22dce0	0.009940356
177	0xbd1a15ee	-0.03761857
178	0x3a35b035	0.0006930859
179	0x3d8fc0a1	0.07019163
180	0x3d0f6968	0.035012633
181	0x3d491a77	0.049097504
182	0xbbcade01	-0.0061910157
183	0x3b22fcc6	0.0024869903
184	0x3bf99434	0.007616544
185	0x3bb404c2	0.0054937312
186	0x3d932342	0.07184459
187	0xbde1460b	-0.10999688
188	0x3dcba6c6	0.09943919
189	0x3c98ee0f	0.018668203
190	0x3dbe6138	0.09295887
191	0xbd922cd6	-0.07137458
192	0xbd5751f9	-0.05256841
193	0x3d30c8a5	0.0431601
194	0x3afb9f39	0.0019197232
195	0x3c876af9	0.0165305
196	0x3afaa1bc	0.0019121687
197	0xbdeaf97d	-0.11473367
198	0x3da45f36	0.080259725
199	0xbc945281	-0.018105747

pool1.graph_pool.gnn.lin_r.weight f4 [1, 200]
0	0xbbff7f5a	-0.007797164
1	0x3d491c6e	0.04909938
2	0xbd3e88af	-0.04651707
3	0x3dc748e6	0.09730701
4	0xbde852e1	-0.11343933
5	0x3d46c97d	0.048531998
6	0x3da82d4e	0.08211766
7	0xbc6d5c11	-0.014487282
8	0xbd96df01	-0.07366753
9	0x3a945fd5	0.0011320064
10	0x3dc38294	0.0954639
11	0x3d347492	0.044056483
12	0xbc0aa091	-0.008461134
13	0x3da2c9b2	0.079486266
14	0xbdbd5f2d	-0.09246669
15	0x3d3eba2a	0.04656426
16	0x3baee712	0.0053376043
17	0xbae9d650	-0.0017840359
18	0xbd9e0903	-0.077165626
19	0x3c9f11c2	0.019417647
20	0xbda17174	-0.078829676
21	0xbda9a680	-0.082837105
22	0xbaff3dec	-0.001947341
23	0x3a8a5ff6	0.0010557163
24	0x3d1740cd	0.036927033
25	0xbce1cbab	-0.027562937
26	0x3ae8fe3e	0.0017775965
27	0x3da6016c	0.0810574
28	0x3d3b35fa	0.045705773
29	0x3cbe8133	0.023254966
30	0x3dbb9abf	0.09160375
31	0xbca054b5	-0.019571641
32	0x3db33719	0.087507434
33	0xbd046396	-0.032321535
34	0xbbe7c85c	-0.0070734452
35	0xbad37aca	-0.0016134616
36	0x3ce71e39	0.028212653
37	0xbad22a8c	-0.0016034408
38	0x3cfaca75	0.030614117
39	0x3d06ae69	0.032881174
40	0xbd86fc33	-0.06591072
41	0x3db828ba	0.08992143
42	0x39dfa4b8	0.000426566
43	0xbd6db72c	-0.058036014
44	0xbdea8e1c	-0.114528865
45	0xbde1f468	-0.11032945
46	0xbb31c38e	-0.0027124616
47	0x3c2eb7ee	0.010663969
48	0xbd08796a	-0.033318914
49	0xbde7d8ba	-0.11320634
50	0xbc5da1e4	-0.013527367
51	0xba01eaca	-0.0004955946
52	0x38990d09	7.2980365e-05
53	0x3dc8aaaa	0.097981766
54	0x3d7c9cad	0.061672855
55	0x3b3a58a0	0.0028434172
56	0xbda3683f	-0.07978868
57	0xbdaf465e	-0.08558343
58	0x33978c8d	7.0570515e-08
59	0xbba46f41	-0.0050181453
60	0xbda26598	-0.07929534
61	0xbda97b6a	-0.082754925
62	0xbad77ccb	-0.001644039
63	0xbc7f4cb8	-0.015582256
64	0xbb80634a	-0.003918086
65	0x3ca9ec71	0.020742627
66	0x3d914800	0.07093811
67	0x3da620d4	0.0811173
68	0xbdc2e178	-0.09515661
69	0x3da48ddb	0.08034869
70	0x3dabb6e5	0.08384494
71	0xbbb0a414	-0.0053906534
72	0x3d23a30c	0.039950415
73	0xb9de2dde	-0.00042377313
74	0xbc75c133	-0.014999676
75	0xbd79bd68	-0.060971648
76	0x3bfc69e2	0.007703052
77	0xbb06e378	-0.002058236
78	0xbbdcfd73	-0.0067440807
79	0xbcffe61a	-0.03123765
80	0xbb0774c4	-0.0020668963
81	0xbc0c019e	-0.008545307
82	0x3d7b5a32	0.061365314
83	0xbd207c62	-0.03918112
84	0xbcbd7eb9	-0.023131715
85	0x3dd3e7c5	0.10346941
86	0x3c792885	0.0152074145
87	0x3d19a3c2	0.037509687
88	0xbdc2b5ab	-0.09507307
89	0x3d9ad3a8	0.075599015
90	0xbd0fa809	-0.03507236
91	0xbdd5f792	-0.10447611
92	0x3cfdd55b	0.030985525
93	0xbd3e7b3b	-0.04650424
94	0x3dac3370	0.084082484
95	0xbd1693d0	-0.03676206
96	0x3d657373	0.056018304
97	0xbc9e9d03	-0.019361978
98	0x3da07641	0.07835055
99	0xbb6c6c94	-0.003607546
100	0xbd17907b	-0.03700302
101	0xbd5a9fbb	-0.053374987
102	0xbcb5ce4e	-0.0221931
103	0xbb4cc480	-0.0031245053
104	0xbd59fb71	-0.05321831
105	0xbc19701d	-0.009365109
106	0xbbabdd29	-0.00524487
107	0xbd76e737	-0.060279097
108	0xbc50e6d0	-0.0127503425
109	0xbb16ebf1	-0.0023028816
110	0x3da69922	0.081346765
111	0x3a4a22ab	0.00077108544
112	0x3dbb7690	0.091534734
113	0x3ccc3241	0.024926307
114	0xbd03831a	-0.03210745
115	0x3d16c65d	0.036810268
116	0x3d925cfc	0.071466416
117	0x3b0d7bea	0.002158875
118	0xbb1eb1b1	-0.00242148
119	0x3db4c650	0.088268876
120	0xbd089b2c	-0.03335111
121	0x3c3135b1	0.010816024
122	0xbdaab940	-0.08336115
123	0xbdc41368	-0.09574014
124	0xbb94f5c7	-0.0045459005
125	0xbb224ea8	-0.002476612
126	0xbddc19b4	-0.1074709
127	0x3cd508fa	0.026005257
128	0xbc8a0526	-0.016848158
129	0x3b624884	0.0034528086
130	0x3cc0df5e	0.02354401
131	0xbb0fd3db	-0.0021946344
132	0x3dc35fe0	0.09539771
133	0x3d11fce6	0.035641573
134	0xbda64991	-0.081195004
135	0x3cc487b1	0.023990484
136	0xbab95d01	-0.0014142097
137	0x3d9fc5c8	0.07801396
138	0xbd460d9b	-0.04835282
139	0xbd6006c4	-0.054693952
140	0x3d9a2753	0.07527032
141	0xbb32ac58	-0.002726337
142	0x3ce838c1	0.028347375
143	0x3c32632b	0.010887901
144	0x3cc0bc0f	0.023527173
145	0x3d9bfa66	0.07616119
146	0xbd21ee91	-0.039534155
147	0x3d399850	0.045311272
148	0x3baa3893	0.0051947325
149	0xbd44042a	-0.047855534
150	0xbd3e74fb	-0.04649828
151	0xbc85d15c	-0.016335182
152	0xbd654842	-0.055977114
153	0xbdb96ab4	-0.09053555
154	0x3d6204a0	0.055180192
155	0x3cf36458	0.029710934
156	0x3d603896	0.054741465
157	0x3d8f2a9e	0.069905505
158	0x3be0720b	0.0068495325
159	0x3a69736d	0.00089054444
160	0xbe04970a	-0.12948242
161	0xbdd5c587	-0.10438066
162	0x3aec457f	0.0018026083
163	0xbd963318	-0.07333964
164	0x3d816f1e	0.06320022
165	0x3d8a1869	0.06742937
166	0xbdbf4c88	-0.09340769
167	0xbe154495	-0.14576943
168	0x3b5abc45	0.0033376378
169	0xbbf84e97	-0.007577728
170	0xbc64f407	-0.013974196
171	0x3cfdf378	0.030999884
172	0x3cead774	0.02866719
173	0x3d3f1c62	0.046657927
174	0x3d96798e	0.073474035
175	0xbd116594	-0.035497263
176	0xbc3074c8	-0.01077003
177	0xbc451261	-0.012028308
178	0xb976d273	-0.00023538787
179	0xbbb31aeb	-0.0054658554
180	0x3d98d700	0.07462883
181	0x3d356302	0.044283874
182	0xbcec7ae1	-0.028867187
183	0x3d38b763	0.045096766
184	0x3daed183	0.08536055
185	0x3b82b98d	0.0039894045
186	0xbbb6cbab	-0.0055784783
187	0xbdee85ef	-0.116466396
188	0x3d509206	0.05092051
189	0xbd13e457	-0.036106434
190	0x3ce67bd2	0.028135214
191	0xbd1ce4d3	-0.03830416
192	0xbd4486a1	-0.047979955
193	0x3c3f7ab6	0.011686971
194	0x3ac01f46	0.0014657758
195	0x3c497456	0.012295803
196	0x3a9b470c	0.0011846735
197	0xbdebb044	-0.115082294
198	0xbc3cbe13	-0.011519927
199	0xbd5a0d25	-0.05323519

fc.weight f4 [2, 200]
0	0xbd2ba88a	-0.04190878
1	0xbd843648	-0.06455666
2	0xbe0b3c55	-0.13597234
3	0xbd589d12	-0.05288417
4	0xbdbce323	-0.092230104
5	0xbd856c7a	-0.06514831
6	0xbda3627f	-0.07977771
7	0xbe2f0a48	-0.17093766
8	0xbdc3d161	-0.0956142
9	0x34eb0420	4.3775162e-07
10	0xbda542eb	-0.08069404
11	0xbcef3d6b	-0.029204091
12	0x3c10282d	0.008798641
13	0xbddd8b7b	-0.108176194
14	0xbe1bec47	-0.15226851
15	0xbd006bd8	-0.031352848
16	0xbdb76e22	-0.08956553
17	0x3a43eda3	0.00074740703
18	0xbdd58bf2	-0.10427083
19	0xbdfc5e24	-0.123226434
20	0xbe08467b	-0.13308136
21	0xbd9aeb54	-0.075644165
22	0xbd257f4a	-0.040404595
23	0x3abce584	0.0014411663
24	0xbda3dd6a	-0.08001216
25	0xbe280f48	-0.1641208
26	0x34d028a7	3.8772598e-07
27	0xbd39df56	-0.045379005
28	0xbd90b83a	-0.070663884
29	0xbe4587af	-0.1929004
30	0xbcc1edbd	-0.023672933
31	0xbdf7d8fb	-0.121019326
32	0xbcd12620	-0.025530875
33	0xbe344a5e	-0.17606494
34	0xbd437ad0	-0.047724545
35	0x32c1f1f2	2.2578181e-08
36	0x3cee0a93	0.029057777
37	0xb44a5e94	-1.8847123e-07
38	0xbdcc3cd1	-0.09972537
39	0xbd140aef	-0.03614324
40	0xbdced380	-0.10098934
41	0xbd3f56a8	-0.0467135
42	0x37fe1585	3.028918e-05
43	0xbddbf526	-0.10740118
44	0xbdec9d12	-0.11553396
45	0xbe0f5e97	-0.14000927
46	0x3aaa6556	0.0013000171
47	0xbd3f0ae4	-0.046641245
48	0xbe5b9f6e	-0.21447536
49	0xbda9b8b1	-0.0828718
50	0xbe2cfef2	-0.16894129
51	0xb682551e	-3.884211e-06
52	0x347a15e4	2.3291028e-07
53	0xbd525836	-0.051353656
54	0xbda392be	-0.07986973
55	0xbb934685	-0.0044944906
56	0xbdaa15fa	-0.08304973
57	0xbd0e7bab	-0.034785908
58	0x340a8c6f	1.2903341e-07
59	0xbe70e38d	-0.23524304
60	0xbdb12860	-0.08650279
61	0xbe37f555	-0.1796468
62	0x38397dec	4.422471e-05
63	0xbdd91cad	-0.106011726
64	0x3b3c285d	0.0028710582
65	0x3c9c8aee	0.019109216
66	0x3b0ef8aa	0.0021815696
67	0xbd6c6886	-0.05771687
68	0xbd98cf75	-0.07461444
69	0xbda22647	-0.07917457
70	0xbd0bc473	-0.034122895
71	0xbe15e0e3	-0.14636569
72	0xbdee75e4	-0.116435796
73	0xb53bc8f2	-6.995534e-07
74	0xbe097577	-0.13423716
75	0xbdf660d2	-0.12030186
76	0xbbabb148	-0.0052396394
77	0x3ab61653	0.0013892151
78	0xb93e2c09	-0.00018136216
79	0xbdccd38c	-0.10001287
80	0xb49976fb	-2.858504e-07
81	0xbe18f4e9	-0.14937176
82	0xbd05b996	-0.03264769
83	0xbdc2ccae	-0.09511696
84	0xbd5f565f	-0.05452573
85	0xbbc34463	-0.00595908
86	0x3c4bb5be	0.012433467
87	0xbe444e20	-0.19170427
88	0xbcddb032	-0.027061556
89	0xbdf1ba66	-0.11803131
90	0xbd1ab635	-0.037771422
91	0xbcf8efb6	-0.03038774
92	0xbdfea8e2	-0.124345556
93	0xbdf678c3	-0.12034752
94	0xbda1f2d8	-0.07907647
95	0xbde76ec7	-0.11300426
96	0xbd3c268b	-0.045935195
97	0xbe416f08	-0.18890011
98	0x3b1e14ff	0.0024121401
99	0x3a6bde5b	0.0008997672
100	0xbe73bab9	-0.23801698
101	0xbe629b2d	-0.22129507
102	0xbe5fde86	-0.2186223
103	0x3a5ede75	0.00085017766
104	0xbe5b89c5	-0.21439274
105	0xbe602b2d	-0.2189147
106	0x3c2e33b2	0.010632442
107	0xbe0fb9d7	-0.14035736
108	0x3bb7faf1	0.0056146313
109	0x3822075e	3.863067e-05
110	0x3c2a51de	0.010395495
111	0x3997416d	0.0002884971
112	0xbda8d414	-0.08243576
113	0xbd9930cb	-0.0748001
114	0xbe40e149	-0.1883594
115	0xbda6d0a2	-0.08145262
116	0xbdd7d673	-0.1053895
117	0xbc970911	-0.01843694
118	0xbd821031	-0.063507445
119	0xbcba0975	-0.022709588
120	0xbe36674e	-0.17812845
121	0xbe2c5c6e	-0.16832134
122	0xbdf3bd65	-0.119013585
123	0xbdd570b7	-0.10421889
124	0x3a789458	0.0009482554
125	0x348c6513	2.6150573e-07
126	0xbe12ae95	-0.1432441
127	0xbdf5f172	-0.12008943
128	0xbe4dbcb8	-0.20091522
129	0xbe33f69b	-0.17574541
130	0xbde96d21	-0.11397768
131	0x344fa78e	1.9339333e-07
132	0xbd877393	-0.06613841
133	0xbda16687	-0.07880884
134	0xbe27cdbe	-0.16387078
135	0xbd953703	-0.07285883
136	0x39cbfbbe	0.0003890674
137	0xbdb0345b	-0.08603736
138	0x3a01c3ff	0.0004950165
139	0xbd69bc2b	-0.057064217
140	0xbc29db6a	-0.010367254
141	0x399f0c86	0.00030336174
142	0xbd411657	-0.047140446
143	0xbe542d2a	-0.20720354
144	0xbe4aaff8	-0.19793689
145	0xbd266697	-0.04062518
146	0xbdbef9c1	-0.093249805
147	0xbe0c0046	-0.1367198
148	0xbd71734b	-0.058947843
149	0xbe1914db	-0.14949362
150	0xbe6d28c1	-0.23160078
151	0xbe1278fa	-0.14303961
152	0xbd9e79c8	-0.07738072
153	0xbe37609e	-0.1790795
154	0xbcdc6247	-0.026902331
155	0xbe461a7e	-0.19346043
156	0xbd941348	-0.0723024
157	0xbd9c2829	-0.076248474
158	0xbb2ad10a	-0.0026064538
159	0x3aa31dce	0.0012444796
160	0xbdb22e3b	-0.08700224
161	0xbe00457f	-0.1252651
162	0xbde1ea9a	-0.11031075
163	0xbe16d436	-0.1472939
164	0x3b12fef7	0.0022429803
165	0xbdfbd956	-0.12297313
166	0xbda55bcf	-0.08074152
167	0xbd2a921e	-0.041643254
168	0xbb1075aa	-0.002204279
169	0x39bfc803	0.0003657938
170	0xbd360459	-0.04443774
171	0xbe08b749	-0.13351168
172	0xbc5fc6b1	-0.013658212
173	0xbd452ee0	-0.048140407
174	0xbdd7843b	-0.10523268
175	0xbe2d9bbb	-0.16953938
176	0xbb2339e3	-0.002490633
177	0xbe4a2268	-0.19739687
178	0xb9d79c39	-0.0004112439
179	0xbd206ff8	-0.03916928
180	0xbd217169	-0.039414797
181	0xbc92b554	-0.01790873
182	0xbe2574ce	-0.16157839
183	0xbdbea454	-0.09308687
184	0xbbf9cd5b	-0.007623357
185	0xba8978c3	-0.001048826
186	0xbdfe2b93	-0.12410655
187	0xbd2b3a49	-0.041803632
188	0xbd3f4344	-0.04669501
189	0xbe16ea8c	-0.1473791
190	0xbd1ef580	-0.038808346
191	0xbde895d7	-0.11356705
192	0xbe198e1f	-0.14995621
193	0xbdf673eb	-0.12033828
194	0xb7993a76	-1.8266244e-05
195	0xbdad9b90	-0.08476937
196	0x3a10ddf8	0.000552624
197	0xbdb336dd	-0.08750699
198	0x3c18ecba	0.009333784
199	0xbe0183c6	-0.12647924
200	0x3d9fc944	0.0780206
201	0x3d34ad71	0.04411072
202	0x3e1cb3eb	0.15303008
203	0x3d932f35	0.071867384
204	0x3d31d16a	0.043412603
205	0xbcb42c8a	-0.021993894
206	0x3d9317de	0.07182287
207	0x3de8e86f	0.11372458
208	0x3dd60d1f	0.104517214
209	0xb4eb50ce	-4.3830954e-07
210	0x3d9c0f73	0.07620134
211	0x3dafd4f5	0.0858554
212	0xbc102673	-0.0087982295
213	0xbcb49da1	-0.02204782
214	0x3e051407	0.12995921
215	0x3c1a9c69	0.009436705
216	0x3da2602d	0.079285
217	0xba40066b	-0.0007325175
218	0x3e303d7c	0.17210954
219	0x3e12c485	0.14332779
220	0x3db082d5	0.08618704
221	0x3d8f67e7	0.0700224
222	0x3d173a73	0.036920976
223	0xbad47d84	-0.0016211723
224	0xbc276190	-0.010216132
225	0x3e3028b1	0.17203023
226	0xb4d025b3	-3.877045e-07
227	0x3d83f4da	0.06443186
228	0x3d77f031	0.0605318
229	0x3e497fad	0.1967761
230	0x3d426c08	0.047466308
231	0x3e141361	0.14460517
232	0x3d1466d8	0.036230892
233	0x3e3e7470	0.18599105
234	0x3d185095	0.037186224
235	0xb2c18472	-2.2528386e-08
236	0xbd1eea03	-0.03879739
237	0x344a5e4e	1.8847024e-07
238	0x3d9bf651	0.076153405
239	0x3cf1da38	0.029523
240	0x3d0a1f1f	0.033721086
241	0x3d13b280	0.036058903
242	0xb807eee1	-3.240898e-05
243	0x3dafa6cd	0.085767366
244	0x3db6fb70	0.08934677
245	0x3d7f689a	0.062355615
246	0xbaaa03bc	-0.0012971084
247	0xb9a8b82b	-0.00032180673
248	0x3e65332e	0.22382805
249	0x3df7bcd9	0.12096567
250	0x3e39e758	0.18154657
251	0x356ba3da	8.778276e-07
252	0xb53a1481	-6.9320237e-07
253	0x3d641eb3	0.05569334
254	0x3d733da5	0.05938496
255	0x3b93b909	0.004508142

fc.bias f4 [2]
0	0x3d6723a5	0.056430478
1	0x3d052d59	0.03251395
