examples/model.pth (torch, 231315 bytes, 8 tensors)

layers.0.graph_conv.weight f4 [79, 200]
0	0xbe03541f	-0.12825058
1	0x3d7f273b	0.062293272
2	0xbdadab36	-0.084799215
3	0x3ce90852	0.02844635
4	0xbcdfe340	-0.027330041
5	0x3bc95f0b	0.006145363
6	0xbde156fc	-0.11002919
7	0xbdc67899	-0.09690971
8	0xbd2ccf0d	-0.042189647
9	0xbdea0d82	-0.11428358
10	0x3d71bcc3	0.059017908
11	0xbcdbcf74	-0.02683232
12	0x3de00c77	0.109398775
13	0xbe02f1cf	-0.12787555
14	0x3dc76168	0.09735376
15	0x3df22793	0.118239544
16	0x3d340aeb	0.043955725
17	0xbd851796	-0.06498639
18	0xbd159e29	-0.036527786
19	0x3de3a092	0.11114611
20	0xbd862b0e	-0.06551181
21	0xbd3d40b7	-0.046204295
22	0x3c7cf1af	0.015438481
23	0x3bbd78b6	0.005782212
24	0xbdfbe992	-0.123004094
25	0x3dc0fa24	0.094227105
26	0xbdbbff9a	-0.091796115
27	0xbde3814c	-0.11108646
28	0xbc51ff98	-0.012817286
29	0x3dee7279	0.11642928
30	0x3ba71509	0.005098943
31	0x3d18c1d4	0.037294224
32	0xbdaba672	-0.08381356
33	0xba43b3db	-0.000746546
34	0x3e0c51a5	0.1370302
35	0x3a680476	0.00088507624
36	0x3cc1b4ab	0.02364572
37	0x3b1ec884	0.0024228403
38	0xbd988c81	-0.07448674
39	0x3e166b3f	0.14689349
40	0xbe09b99b	-0.13449709
41	0xbda9759d	-0.08274386
42	0x3d22b2c5	0.03972127
43	0xbdea6ecc	-0.11446914
44	0xbd0b5675	-0.034018
45	0x3cd29133	0.025704002
46	0x3ce2cd18	0.027685687
47	0x3d038fab	0.032119434
48	0x3da4ac46	0.08040671
49	0x3e05261e	0.13002822
50	0xbde3f9d4	-0.11131635
51	0x3d87b75a	0.066267684
52	0xbd92769f	-0.071515314
53	0x3daebfab	0.085326515
54	0x3cad7c25	0.02117736
55	0x3d759afc	0.059962258
56	0xbe0ed10d	-0.13946934
57	0x3c90ab4d	0.017659808
58	0x3e12acf3	0.14323787
59	0x3de1155b	0.10990401
60	0xbc810a81	-0.015752079
61	0xb9025658	-0.00012429932
62	0x3d6f8f71	0.058486406
63	0x3db29772	0.08720292
64	0x3d05005d	0.03247105
65	0x3d1346e3	0.035956275
66	0xbd92b3a1	-0.07163168
67	0xbe010c66	-0.12602386
68	0x3d0f0a5d	0.034921993
69	0xbdb8408f	-0.089966886
70	0xbc0750a2	-0.00825897
71	0x3caaa5c3	0.020830994
72	0x3d931cc0	0.07183218
73	0xbde4c221	-0.1116984
74	0xbc3ef231	-0.011654423
75	0x3d8c68bb	0.06855913
76	0xbdcbe4d1	-0.09955753
77	0x3dac1b35	0.08403627
78	0x3da817c2	0.082076564
79	0xb9214c22	-0.00015382518
80	0x3d7fecf3	0.06248183
81	0x3dafe698	0.08588904
82	0xbdff5405	-0.12467197
83	0xbd3aa2f3	-0.045565557
84	0xbbca7e71	-0.006179624
85	0xbdae604d	-0.08514462
86	0x3dea9292	0.11453737
87	0xbd077ae4	-0.033076182
88	0xbd2deb5f	-0.042460795
89	0xbe01368a	-0.12618461
90	0x3d14dfbb	0.03634618
91	0x3db1fc2e	0.086906776
92	0xbd9b2d60	-0.07577014
93	0xbdc33209	-0.09531028
94	0xbd17424d	-0.036928464
95	0xbd2be496	-0.041966043
96	0x3d75e7fc	0.06003569
97	0x3e107eb4	0.14110833
98	0x3d85bd23	0.065302156
99	0xbda5825c	-0.08081505
100	0x3de4a6c6	0.11164622
101	0xbcb8f260	-0.02257651
102	0xbd512b52	-0.051066704
103	0x3dba3639	0.090923734
104	0x3d8eea0d	0.069782354
105	0xbd8e0acf	-0.06935655
106	0x3cd58459	0.026064085
107	0xbdc80b4a	-0.09767778
108	0x3cb59543	0.0221659
109	0x3e133fc9	0.14379801
110	0xbdd7ae17	-0.10531252
111	0xbc2cdf7c	-0.01055133
112	0x3c824145	0.015900264
113	0xbe0e2e11	-0.1388476
114	0xbe01814c	-0.12646979
115	0x3de4080c	0.11134347
116	0x3dc5afff	0.09652709
117	0xbd47e411	-0.048801485
118	0x3d0aaf4b	0.03385858
119	0xbdfbb1f0	-0.12289798
120	0xbe037214	-0.12836486
121	0x3dadf9bd	0.084948994
122	0xbc6be1e0	-0.0143971145
123	0xbe08fb1e	-0.13377044
124	0xbd39bcef	-0.045346197
125	0x3def4ffa	0.11685176
126	0xbda7d740	-0.081953526
127	0xbc91b208	-0.017785087
128	0xbde4b577	-0.11167424
129	0xbdaacfcf	-0.083404176
130	0x3e11047f	0.14161871
131	0x3c483818	0.012220405
132	0x3da6086a	0.081070736
133	0x3de8dd0c	0.11370286
134	0xbdf2af44	-0.118498355
135	0x3d32ecbf	0.04368281
136	0x3d95afa9	0.07308895
137	0x3e024df7	0.12725054
138	0x3d4a16e5	0.04933824
139	0xbc07c2e1	-0.008286209
140	0x3d5ffa0a	0.054681815
141	0x3de26872	0.110550776
142	0xbd97efc0	-0.074187756
143	0xbcb9deeb	-0.022689303
144	0x3d1bfe61	0.03808439
145	0x3dc9d90a	0.0985585
146	0x3db7e9df	0.08980154
147	0xbdb377fa	-0.08763118
148	0x3e0d37a8	0.13790762
149	0xbddb6ff6	-0.10714714
150	0xbdae6143	-0.08514645
151	0xbce5e194	-0.028061666
152	0x3d4e93bd	0.050433863
153	0x3dc0b4df	0.094094984
154	0xbd16857f	-0.036748406
155	0xbd078d18	-0.03309354
156	0xbc1d84fb	-0.009614225
157	0x3e127e0e	0.14305899
158	0xbd7f9766	-0.062400244
159	0x3e053cf6	0.13011536
160	0xbd8e442d	-0.06946597
161	0x3d5bacfc	0.053631768
162	0xbde12930	-0.10994184
163	0x3d69dca3	0.05709518
164	0xbd3b7e42	-0.045774706
165	0x3d29ab46	0.041423105
166	0xbdf601fe	-0.12012099
167	0x3d10a253	0.035311054
168	0xbd59a78d	-0.053138305
169	0xbcca4bd0	-0.024694353
170	0xbca482a5	-0.020081827
171	0xbd67b6c8	-0.0565708
172	0xbb9a17cb	-0.0047025434
173	0x3dca1a13	0.098682545
174	0x3dbd46cc	0.09242019
175	0xbdc9e5ac	-0.098582596
176	0xbb9357a8	-0.0044965334
177	0xbdbd6d46	-0.09249358
178	0xbdd8564b	-0.10563334
179	0x3ddd861a	0.108165935
180	0x3dbd0ad4	0.09230581
181	0x3da477d6	0.080306694
182	0x3d2c57d4	0.042075947
183	0x3e0ed250	0.13947415
184	0xbdcd23f9	-0.10016627
185	0x3d9bc526	0.076059625
186	0xbd19574c	-0.03743677
187	0x3d971c93	0.07378497
188	0x3d38999c	0.04506837
189	0x3dcc6938	0.099810064
190	0x3d8f04f1	0.069833644
191	0x3d40d973	0.047082376
192	0xbde8ef4d	-0.11373768
193	0x3da7beab	0.08190664
194	0xbdba8e4c	-0.09109172
195	0xbd302094	-0.04299982
196	0x3df1239c	0.1177437
197	0xbe0a36cb	-0.13497464
198	0xbe058fd2	-0.13043144
199	0xbdb623f6	-0.08893578
200	0xbb933c7c	-0.0044932943
201	0x3ca9bfa4	0.020721264
202	0x3dbab179	0.091158815
203	0x3cddb813	0.027065312
204	0x3ccec854	0.025242008
205	0xbd88d3f0	-0.06681049
206	0x3e038d5b	0.12846892
207	0xbdae1ccf	-0.085015886
208	0x3e045848	0.12924302
209	0x3dd32a85	0.10310844
210	0xbc1e2d67	-0.009654379
211	0x3e067b5b	0.13132994
212	0x3dc3225b	0.09528037
213	0x3de88a4f	0.11354505
214	0x3cabd957	0.02097766
215	0x3d1dfee3	0.038573157
216	0xbd8cd04a	-0.068756655
217	0x3ccdb5de	0.025111135
218	0x3da88c31	0.082298644
219	0xbce3ca73	-0.027806496
220	0xbde503b5	-0.11182348
221	0xbdb23f9c	-0.08703539
222	0x3de22401	0.110420235
223	0x3d358b03	0.044322025
224	0x3de48834	0.11158791
225	0x3d70ed3e	0.05882
226	0xbd29546a	-0.04134027
227	0xbdff1bfc	-0.124565095
228	0x3d4d23b8	0.050082892
229	0xbe05e131	-0.13074185
230	0x3db1c256	0.08679645
231	0x3c4d8625	0.01254419
232	0xbca3807d	-0.019958729
233	0xbd551a7c	-0.05202721
234	0x3d3a5885	0.045494575
235	0x3e005588	0.12532628
236	0x3d47cd03	0.0487795
237	0x3d253544	0.040334
238	0x3da6bf25	0.08141927
239	0xbdc037b7	-0.09385627
240	0xbda0a6b8	-0.07844299
241	0x3cd11495	0.02552251
242	0x3d869faf	0.06573426
243	0xbd3146d0	-0.043280423
244	0x3c9c040a	0.019044895
245	0xbd97791c	-0.07396147
246	0xbd33c224	-0.04388632
247	0xbd50ee76	-0.051008664
248	0x3bc7a41f	0.006092563
249	0x3d7ef804	0.062248245
250	0x3c3c54af	0.0114947995
251	0x3cf20168	0.029541686
252	0x3d2182bd	0.039431322
253	0x3e127076	0.14300713
254	0x39a66536	0.00031737395
255	0xbb393a07	-0.0028263347

layers.0.graph_conv.bias f4 [200]
0	0xbb8d1596	-0.0043055518
1	0x39ace52e	0.0003297715
2	0x3b38af26	0.0028180568
3	0xb99d42d5	-0.00029995167
4	0xb8453f10	-4.702719e-05
5	0x3b34c96d	0.002758588
6	0x3a165333	0.00057344435
7	0xba1b40f4	-0.00059224595
8	0x3a50f63b	0.00079712615
9	0xb917b880	-0.00014469214
10	0x3af484b5	0.0018655272
11	0x3b420236	0.0029603369
12	0xb8cce508	-9.7701384e-05
13	0xbb806e61	-0.003919408
14	0xbb9a5795	-0.0047101476
15	0xbb1a511e	-0.0023546885
16	0xba367caf	-0.00069613283
17	0x3abf9ede	0.001461949
18	0x3b129027	0.0022363754
19	0x3b94c5e7	0.0045401934
20	0xbb4670ef	-0.0030279716
21	0xba2c3a0f	-0.00065699307
22	0x3a68c57a	0.0008879524
23	0xb9ed70b4	-0.00045288133
24	0x3b302d2b	0.002688239
25	0x3adf90ba	0.0017056682
26	0x3b57fdfa	0.0032957778
27	0x3b3e4062	0.0029030074
28	0x3a7d43bd	0.0009661278
29	0x3a8306a1	0.0009996482
30	0xbb4d828d	-0.0031358332
31	0xbb8e91cc	-0.0043508764
32	0xbad5e1c2	-0.0016317891
33	0x3b85332d	0.0040649385
34	0x3b248dc6	0.0025108918
35	0x3b9f045c	0.0048528146
36	0x3a02fd7d	0.0004996879
37	0xba212f03	-0.0006148668
38	0x3b9cb2d9	0.0047820625
39	0x3b79edd1	0.0038136134
40	0x3b3af039	0.0028524532
41	0x3b3178aa	0.0027079978
42	0x3b70d4df	0.0036747975
43	0xba465aca	-0.0007566629
44	0xbb539524	-0.003228494
45	0xbaa5b188	-0.0012641409
46	0x3b2a8314	0.002601807
47	0xbb55da2a	-0.0032631257
48	0xbb0dec0a	-0.0021655583
49	0xbaa589ba	-0.0012629547
50	0x398ae15a	0.0002648931
51	0xbac924b7	-0.0015346025
52	0xbb22f117	-0.002486294
53	0x3b3f76d8	0.0029215124
54	0xba30f134	-0.0006749809
55	0xba8a59e8	-0.0010555359
56	0xbad275aa	-0.0016056795
57	0x3b8af2fe	0.0042403927
58	0x3b8eb3d5	0.0043549337
59	0xbb0a1a5a	-0.0021072836
60	0xbb3d6fe7	-0.002890581
61	0xbb454edf	-0.0030106825
62	0x3ab9e9bf	0.0014184042
63	0xbade0935	-0.001694
64	0x3aadd7df	0.0013263187
65	0xbb4da30e	-0.0031377706
66	0x3b8d92ee	0.004320494
67	0x3acf923b	0.0015836427
68	0x3aa1f2b5	0.0012355658
69	0x3b1285e7	0.0022357644
70	0x3aad1111	0.0013203939
71	0x3b0c1897	0.0021376961
72	0x3b249ce8	0.0025117937
73	0xbba13d50	-0.004920639
74	0x3ac44024	0.0014972729
75	0x3a9ad4df	0.0011812708
76	0x3b987224	0.0046522785
77	0xb94eb150	-0.00019711745
78	0x3a93856f	0.0011254976
79	0xbb2e8ba7	-0.0026633532
80	0x39cb4c68	0.00038776104
81	0xbaeb3034	-0.0017943443
82	0x3a192278	0.0005841623
83	0xbb77a4fe	-0.0037787552
84	0xb9cd590c	-0.00039166992
85	0x3af7a17a	0.0018892728
86	0xbb517d76	-0.003196565
87	0xbb8cebde	-0.0043005785
88	0x3b1daf5e	0.0024060826
89	0xbb409e44	-0.0029391209
90	0xbb9566ee	-0.0045593893
91	0x3adb24ad	0.0016719304
92	0xba804709	-0.0009786795
93	0x3b885483	0.004160465
94	0xbb813410	-0.003942974
95	0x3a411b52	0.0007366437
96	0x3b644ce8	0.0034835879
97	0x3b101fa7	0.0021991523
98	0xbb34bda5	-0.0027578857
99	0xba736659	-0.00092849653
100	0xba902912	-0.0010998568
101	0x37f6effc	2.9437237e-05
102	0x3b14ac8c	0.0022685854
103	0x3a86977d	0.0010268536
104	0xbb6a228e	-0.0035726163
105	0xbb2e8aca	-0.0026633018
106	0xbb7967ed	-0.003805633
107	0x3a6ce8f4	0.0009037398
108	0x3a4cf0ab	0.0007817845
109	0xbb4bdd25	-0.0031107154
110	0xba79e898	-0.00095332554
111	0xbaec3592	-0.0018021336
112	0xbae9df7b	-0.0017843092
113	0x3b4d4994	0.0031324374
114	0x39d2b378	0.00040188036
115	0xbb6ea945	-0.003641681
116	0xb6c461c0	-5.852635e-06
117	0x3b462445	0.003023402
118	0xbacb8d60	-0.0015529804
119	0xba4f6be7	-0.0007912502
120	0x3a86a65d	0.0010272969
121	0x3a847e45	0.0010108432
122	0x399a0130	0.00029374054
123	0xbab40eae	-0.0013737285
124	0x3b31c743	0.0027126826
125	0xbab83ce0	-0.0014056228
126	0xbaf16220	-0.0018416084
127	0xb9233c98	-0.00015567464
128	0xba9966db	-0.0011703627
129	0x3aa8f312	0.0012889823
130	0x3aaf6d74	0.001338406
131	0x3773e2c0	1.4536723e-05
132	0xbb14f4bc	-0.002272888
133	0xbb197546	-0.0023415848
134	0xba9a03c2	-0.0011750387
135	0x39f37ec7	0.00046443028
136	0x3a3e979a	0.0007270515
137	0x3aadd617	0.0013262656
138	0x3892ee9c	7.006267e-05
139	0x3a8872c8	0.0010410184
140	0xba03df7e	-0.00050305563
141	0x3a84ad1a	0.0010122389
142	0x3af5882c	0.0018732599
143	0x3b34bbeb	0.0027577828
144	0x3b8d6e9c	0.004316164
145	0xba083c2f	-0.00051969563
146	0x3a93f4b0	0.0011288133
147	0xba2cae59	-0.0006587259
148	0xbafbc524	-0.0019208533
149	0xbb8abfbe	-0.004234283
150	0x3a6323b2	0.0008664682
151	0x3b39508c	0.002827677
152	0xbb8b582f	-0.0042524557
153	0x3b18294a	0.002321797
154	0x3af3ad7f	0.0018591135
155	0xbb39b0ee	-0.0028334218
156	0xbb3eb72a	-0.0029100874
157	0xbb514ed6	-0.003193786
158	0x3b72dbb6	0.0037057227
159	0x3ab27238	0.0013614362
160	0xb8fc2768	-0.000120236364
161	0xbb0cdca3	-0.0021493814
162	0xbb672ec7	-0.0035275684
163	0xbb0268a5	-0.0019898799
164	0x37850f50	1.5861966e-05
165	0xbb55a3ef	-0.0032598933
166	0xba98aa41	-0.0011647419
167	0x3ab76793	0.001399266
168	0x3b405ea5	0.0029353288
169	0xbb285c35	-0.0025689725
170	0x39a68ee0	0.00031768437
171	0x3b68df28	0.0035533402
172	0xbb45d92e	-0.0030189264
173	0xbacf11cc	-0.001579815
174	0xbb345926	-0.0027518957
175	0xbb565dee	-0.0032709795
176	0x3b7bdd16	0.0038431338
177	0x3b4dfae4	0.003143006
178	0xba19d051	-0.00058675284
179	0xb9741a18	-0.00023279374
180	0xbae5b33d	-0.0017524731
181	0xba3ee579	-0.0007282119
182	0xbb76d1af	-0.0037661602
183	0xbb8bdef8	-0.0042685233
184	0x3a9e4091	0.0012073686
185	0x3b8778dc	0.0041342806
186	0x3ae9a8b2	0.0017826764
187	0x3a403f4f	0.00073336525
188	0x3b5b3a45	0.003345148
189	0xbb6fa20b	-0.003656509
190	0x3974e7ea	0.00023356048
191	0xba8ddd47	-0.0010823392
192	0x3b19fa2f	0.0023495068
193	0x3ab39a5d	0.001370262
194	0x39d2897a	0.0004015675
195	0x3b333c37	0.0027349123
196	0xbb310159	-0.002700886
197	0xbabafcda	-0.001426603
198	0xbb750cb9	-0.0037391616
199	0xbb6a84a5	-0.0035784629

layers.1.graph_conv.weight f4 [200, 200]
0	0x3d2d9a84	0.042383686
1	0xbdc1ac7f	-0.09456729
2	0x3dd5f969	0.10447962
3	0xbcd44bf0	-0.025915116
4	0xbd511620	-0.05104649
5	0x3c3200fa	0.010864491
6	0x3c028cb0	0.007968113
7	0x3dce131a	0.10062237
8	0x3cf07fe8	0.029357865
9	0xbdb7409d	-0.08947871
10	0xbdada915	-0.084795155
11	0x3de9f4d2	0.11423649
12	0x3d5a3cd5	0.05328067
13	0x3d64e556	0.055882774
14	0xbd844b12	-0.06459631
15	0x3d2f58f5	0.042809445
16	0xbd591a1f	-0.053003427
17	0x3d51af53	0.051192593
18	0xbd19c5d2	-0.03754217
19	0xbde1521a	-0.11001988
20	0xbdc01e67	-0.09380799
21	0x3cb33cf4	0.02187965
22	0xbdd264a6	-0.102731034
23	0xbd4a4810	-0.04938513
24	0x3dadcc59	0.08486242
25	0x3d80852d	0.06275401
26	0x3cccc5c4	0.024996646
27	0x3dda9626	0.1067317
28	0x3dd90a58	0.10597676
29	0xbc921f5a	-0.017837215
30	0xbdb31469	-0.08744127
31	0xbc08f551	-0.008359269
32	0xbb9db39e	-0.004812672
33	0xbd44efcc	-0.04808025
34	0xbc9ae3eb	-0.018907508
35	0x3d865dad	0.06560836
36	0x3d030f70	0.031997144
37	0xbda88660	-0.08228755
38	0x3bae218c	0.0053140577
39	0xbd68e8c4	-0.056862608
40	0x3dbe9e80	0.09307575
41	0xbdb5d5a3	-0.088786386
42	0xbd5cdaa0	-0.053919435
43	0x3de925d7	0.113841705
44	0x3cd46111	0.025925191
45	0x3da92e1c	0.08260748
46	0xbba5e8d9	-0.005063158
47	0xbda72b78	-0.08162588
48	0x3ca29351	0.019845637
49	0x3bb61e34	0.0055577997
50	0x3dd669af	0.10469376
51	0xbb084c1a	-0.0020797313
52	0x3da309dd	0.07960866
53	0x3d9cbb60	0.076529264
54	0xbd9f8741	-0.077894695
55	0x3dad624a	0.08466013
56	0xbda827e9	-0.08210737
57	0xbdb4c3ab	-0.08826383
58	0xbd07ebf3	-0.033184003
59	0xbd87321f	-0.06601357
60	0x3d8faef2	0.0701579
61	0xbd27632c	-0.040866062
62	0x3cf0a28c	0.029374383
63	0x3dd375c1	0.10325194
64	0xbdc7811a	-0.09741421
65	0xbc3e0f33	-0.011600303
66	0x3dd6a263	0.104801916
67	0xbd3da831	-0.046302978
68	0x3ac16c6e	0.0014757046
69	0x3d90fce0	0.07079482
70	0xbd446598	-0.04794845
71	0xbd8c1f49	-0.06841905
72	0x3d064246	0.032778047
73	0x3c41cbce	0.011828376
74	0x3d4370c8	0.04771498
75	0xbcfbf280	-0.030755281
76	0xbda268b4	-0.07930127
77	0x3a6e67cc	0.00090944464
78	0xbdf3a1dc	-0.118961066
79	0x3d366a64	0.044535056
80	0xbdab84d5	-0.08374945
81	0x3c8966ec	0.01677271
82	0x3de06000	0.109558105
83	0xbdf43aba	-0.11925264
84	0xbccacb9a	-0.024755288
85	0xbd9cd29d	-0.07657359
86	0xbd90b18c	-0.070651144
87	0x3c1c6d18	0.009547494
88	0x3d841876	0.06449978
89	0xbd84c34f	-0.06482565
90	0x3da3b28e	0.07993041
91	0x3c36f0d3	0.011165815
92	0x3c864929	0.016392307
93	0x3d8b3c21	0.06798578
94	0x3da4e941	0.08052302
95	0xbd804d85	-0.06264786
96	0x3d7a5b4e	0.06112223
97	0x3df13fbc	0.117797345
98	0xbde3256f	-0.11091124
99	0x3b9ba807	0.004750255
100	0xbd4ede75	-0.05050512
101	0x3d5ecca3	0.054394376
102	0xbd8f2b56	-0.069906875
103	0x3af5451e	0.0018712615
104	0x3df5ced0	0.12002337
105	0xbda43720	-0.08018327
106	0xbd20a80d	-0.039222766
107	0x3dd62f0f	0.104581945
108	0xbdcfec91	-0.10152543
109	0xbd4dbaf9	-0.05022714
110	0xbd7bf82f	-0.061515983
111	0x3cdae49f	0.026720343
112	0x3c8a993b	0.01691877
113	0xbb90b08f	-0.0044155787
114	0x3bc219c2	0.0059234807
115	0xbdd1f990	-0.102526784
116	0x3c8fa202	0.017533306
117	0x3b01d7e8	0.0019812528
118	0x3cc6a3f3	0.024248099
119	0x3ce34693	0.027743613
120	0xbd86a92f	-0.06575238
121	0xbdf14d30	-0.117823005
122	0x3dbd47e9	0.092422314
123	0x3cf989af	0.03046116
124	0x3d83c870	0.06434715
125	0xbde3929a	-0.111119464
126	0x3def3bcd	0.11681328
127	0x3d6c8e81	0.05775309
128	0x3a666598	0.00087889424
129	0x3c4d8aee	0.01254533
130	0x3a120371	0.0005569971
131	0x3c464dbc	0.012103494
132	0xbd6617ce	-0.056175046
133	0x3dc97c6e	0.09838186
134	0xbccdb522	-0.025110785
135	0x3ddaa0e8	0.10675222
136	0xbd759b58	-0.0599626
137	0xbcd213fa	-0.025644291
138	0x3da51b76	0.080618784
139	0xbca1f4f8	-0.01977013
140	0x3d1bc48c	0.03802924
141	0x3d81b4fd	0.06333349
142	0x3d82a51a	0.06379147
143	0xbc1b638b	-0.009484182
144	0x3d896c8a	0.06710155
145	0x3daaaa18	0.08333224
146	0xbd6e798d	-0.05822139
147	0xbd371180	-0.044694424
148	0x3d44d832	0.048057742
149	0xbd8f6e33	-0.07003441
150	0x3dcbd3e4	0.09952524
151	0xbbb257ac	-0.00544258
152	0xbd074494	-0.033024386
153	0x3dc9fe52	0.09862961
154	0x3d3a49f1	0.045480672
155	0xbd8df4c3	-0.0693145
156	0xbda86fd0	-0.082244515
157	0x3ba5522a	0.005045195
158	0xbd2233bb	-0.039600115
159	0xbdb146ac	-0.08656058
160	0x3d09311a	0.033494093
161	0x3cd35fb7	0.025802476
162	0xbdb12852	-0.086502686
163	0xbd81074e	-0.063002214
164	0x3db75ccc	0.089532465
165	0xbdbb153e	-0.09134911
166	0xbd756ecf	-0.05992013
167	0xbd3109a9	-0.043222103
168	0x3d86754d	0.06565342
169	0x3d1c43f7	0.038150754
170	0x3d9ca76d	0.076491214
171	0x3cb0487e	0.021518942
172	0x3d837899	0.064194866
173	0xbdcd967f	-0.100384705
174	0x3d965489	0.073403426
175	0x3d821a8e	0.06352721
176	0x3c7f745b	0.015591706
177	0xbd44e238	-0.0480673
178	0xbdbbc8ba	-0.09169145
179	0x3db3fedb	0.08788844
180	0x3d98afdf	0.0745542
181	0x3de66222	0.11249186
182	0x3da4d3b4	0.08048192
183	0x3cc5f6fb	0.024165621
184	0xbd3eec6d	-0.046612192
185	0x3d98dc89	0.07463939
186	0xbd918bdd	-0.07106755
187	0xbde34810	-0.11097729
188	0x3cba4f77	0.02274297
189	0xbde51f94	-0.11187664
190	0xbd062623	-0.032751214
191	0xbd9e4d3d	-0.07729576
192	0xbde0e212	-0.109806195
193	0x3d5674ff	0.05235767
194	0x3d0d73cb	0.034534257
195	0x3db57a24	0.08861187
196	0x3c7b8c99	0.015353345
197	0x3dca83a3	0.09888389
198	0xbdc2ec39	-0.09517712
199	0xbd938ad5	-0.072042145
200	0x3d32fea2	0.043699868
201	0x3d530125	0.051514763
202	0x3dc5885d	0.0964515
203	0xbd3ab5b1	-0.04558343
204	0x3dd4fbca	0.103995875
205	0xbddc4178	-0.10754675
206	0xbdc04214	-0.093876034
207	0xbca2a29b	-0.019852927
208	0x3d851b96	0.06499402
209	0xbc82f169	-0.015984254
210	0xbd4995a3	-0.04921497
211	0x3c0d3bec	0.0086202435
212	0x3d97be9c	0.07409403
213	0xbdb43fba	-0.088012174
214	0xbd822cc8	-0.063561976
215	0xbd12ab34	-0.035807803
216	0x3daaaf30	0.083341956
217	0xbd98fa7b	-0.0746965
218	0x3de2c071	0.110718615
219	0xbd91d258	-0.07120198
220	0xbd26d5dd	-0.0407313
221	0xbc26219c	-0.010139849
222	0xbc56a80d	-0.01310159
223	0xbb747616	-0.003730183
224	0x3dcff22c	0.101536125
225	0xbd824459	-0.063606925
226	0x3d2aebab	0.041728657
227	0x3cc9f2d4	0.024651922
228	0xbd5c4673	-0.053778123
229	0xbd7ea02a	-0.062164463
230	0x3dbc8485	0.092049636
231	0xbda4a3f0	-0.08039081
232	0xbb978c54	-0.0046248827
233	0x3db3eec1	0.08785773
234	0xbcf27010	-0.029594451
235	0xbd5be659	-0.053686474
236	0xbda46261	-0.08026577
237	0xbdb37e66	-0.08764343
238	0xbdd82183	-0.10553267
239	0xbda3a84f	-0.07991087
240	0xbd9254a4	-0.0714505
241	0xbdd0c23a	-0.10193296
242	0x3d317544	0.043324724
243	0x3cdde0aa	0.027084667
244	0xbd9f62c6	-0.077825114
245	0x3d0f2e43	0.034956228
246	0x3d04cb10	0.032420218
247	0x3c396131	0.011314676
248	0xbcd002f8	-0.02539204
249	0x3bc32d88	0.0059563555
250	0x3d7b580e	0.061363272
251	0x3dbe4fc4	0.09292558
252	0xbd0c67fb	-0.03427885
253	0xbd1f8f46	-0.038954996
254	0x3d550a6c	0.052011892
255	0xbde07c92	-0.1096126

layers.1.graph_conv.bias f4 [200]
0	0x3a8f8ee7	0.0010952622
1	0x3ad43309	0.0016189526
2	0x3b0ccfff	0.002148628
3	0xbb2e1dd4	-0.0026568072
4	0xbb4a1f49	-0.0030841401
5	0x39fe6efa	0.0004852934
6	0x3af14838	0.0018408364
7	0xbb1aa4e9	-0.002359683
8	0xba2fca1b	-0.0006705836
9	0xba177f11	-0.0005779127
10	0x3b434cb9	0.002980037
11	0xbad06dcc	-0.0015901863
12	0x3ac4beee	0.0015010515
13	0xbb468609	-0.0030292294
14	0xbb97a972	-0.0046283538
15	0xb9aec6ab	-0.00033335885
16	0xbb5a63c6	-0.003332363
17	0xba4fa707	-0.00079213124
18	0x39ca3209	0.00038565721
19	0xbb237872	-0.0024943617
20	0x39b4e0a8	0.00034499657
21	0x3aa095ff	0.0012251734
22	0x3a83afb3	0.0010046869
23	0x3ac3afc5	0.0014929703
24	0xbac53386	-0.0015045262
25	0x3a53ed26	0.0008084349
26	0x3b4edac9	0.0031563512
27	0xba34fa1e	-0.00069037254
28	0x3b14ecfa	0.0022724257
29	0x3b3a3fd8	0.0028419401
30	0x39d64ce7	0.00040874557
31	0xbb2fd9d6	-0.0026832721
32	0x3b1c28e5	0.0023828086
33	0xbb246e39	-0.0025090112
34	0xbb5b3141	-0.0033446106
35	0xbaeb3947	-0.0017946147
36	0xb9fe4397	-0.00048497014
37	0x3b035faa	0.0020046034
38	0xbab36daa	-0.0013689299
39	0x3a40e15d	0.00073578005
40	0x3b8ca8b0	0.00429257
41	0xbb807db2	-0.003921234
42	0xbb0ca430	-0.0021460168
43	0xbb8a3061	-0.004217193
44	0x38c175d0	9.2249014e-05
45	0xba3964fe	-0.0007072239
46	0xbb821bd1	-0.003970601
47	0xbb937618	-0.004500162
48	0xba496423	-0.0007682463
49	0xbb29639e	-0.002584673
50	0x3ac087fd	0.0014688965
51	0xba1effc2	-0.00060653326
52	0xba83659d	-0.001002479
53	0xbade0dc8	-0.0016941363
54	0xba71c6e0	-0.0009223055
55	0x3991a03c	0.0002777594
56	0xb9851cab	-0.00025389096
57	0x3a62384c	0.00086296047
58	0xb965e324	-0.00021923758
59	0xbaadbc59	-0.0013254985
60	0x3a88d8c4	0.0010440578
61	0x3b41aeb6	0.0029553599
62	0x3b2b50be	0.0026140655
63	0xbaf4e64c	-0.0018684356
64	0x3b32a3ec	0.002725835
65	0x3a958e03	0.0011410121
66	0x3a3d3a34	0.0007218451
67	0x39ced8c8	0.00039452896
68	0xbafffb14	-0.0019529783
69	0xba23d278	-0.0006249319
70	0x3b4d791e	0.003135271
71	0x3b06f804	0.0020594606
72	0xba9ef581	-0.0012127609
73	0xb9ae39c4	-0.00033230905
74	0xba0551a9	-0.00050857157
75	0xbb102e99	-0.002200043
76	0xba806112	-0.0009794554
77	0xbb4f9a8f	-0.0031677817
78	0x3b37048e	0.0027926299
79	0x3b03b59e	0.0020097266
80	0xbaa90ad6	-0.0012896906
81	0x3acb662c	0.001551812
82	0xb8d0afcc	-9.9509576e-05
83	0x3aafb235	0.001340455
84	0xbad16e22	-0.0015978257
85	0x3a74f814	0.0009344828
86	0x39ca9db1	0.00038645932
87	0x3a379727	0.00070034195
88	0x3b80ab6c	0.003926685
89	0xbad172d1	-0.0015979653
90	0x39e603aa	0.00043871748
91	0xbb25ef2b	-0.0025319557
92	0x3b96930a	0.004595165
93	0x3b8bfe78	0.0042722784
94	0xbade1302	-0.0016942921
95	0xba09275c	-0.0005232
96	0xbaa0b194	-0.0012259954
97	0x3993b8e2	0.00028175773
98	0x3b7586f8	0.003746448
99	0xb96c74ea	-0.00022550268
100	0x3a054d9a	0.0005085111
101	0x3ad21ac1	0.0016029702
102	0x3b112b27	0.0022150965
103	0x3a5dcf66	0.0008461386
104	0x3b3a9cf5	0.0028474901
105	0xbae5d732	-0.0017535447
106	0x3a5ba228	0.000837835
107	0xbabe5af2	-0.0014522953
108	0xbb3c1aef	-0.0028702577
109	0xba3db20f	-0.00072363106
110	0xbb41e922	-0.002958842
111	0xb94fcdcc	-0.00019817724
112	0x3a540092	0.0008087243
113	0xbab25020	-0.0013604201
114	0x3b04f6fc	0.0020288816
115	0x39508305	0.00019885234
116	0xba1fe3f3	-0.0006099336
117	0xbb4fe48e	-0.0031721923
118	0xb8011900	-3.077928e-05
119	0xb9488e60	-0.00019126525
120	0x39adfd8e	0.00033186044
121	0x3aca4d56	0.0015434425
122	0x3a58c992	0.00082697824
123	0xbb56f589	-0.003280016
124	0xb9a58119	-0.00031567438
125	0x3a011b90	0.00049250666
126	0xb975f853	-0.00023457529
127	0x3b109c24	0.0022065723
128	0xbace7ff4	-0.0015754686
129	0x3b7a5d25	0.003820249
130	0x3ad3091e	0.001610074
131	0x3b03b81e	0.0020098756
132	0x3b55daed	0.003263171
133	0xbb41c308	-0.002956571
134	0xbb234144	-0.0024910728
135	0x3a605e3c	0.0008558964
136	0xba9b0916	-0.0011828269
137	0xbb00f8a2	-0.0019679447
138	0xbb510c9a	-0.003189838
139	0xb9095b24	-0.0001309929
140	0xba9219c8	-0.00111466
141	0xbaa541a5	-0.0012608065
142	0x3aa1dc79	0.0012349031
143	0xbb82aec0	-0.003988117
144	0x3ae45c89	0.0017422597
145	0xba0df403	-0.0005415084
146	0xb9f55cfc	-0.0004679932
147	0xbb22453d	-0.0024760508
148	0x3a3437c8	0.0006874767
149	0x39daf2e4	0.00041761168
150	0xb798aad0	-1.8199353e-05
151	0xbb81143f	-0.003939181
152	0xbb412c59	-0.0029475896
153	0xbb666336	-0.003515435
154	0xbabe5673	-0.0014521613
155	0xbb80f294	-0.0039351676
156	0xbb1f2377	-0.0024282613
157	0xbb7db119	-0.0038710295
158	0xba1412a6	-0.0005648531
159	0x3b683438	0.0035431515
160	0xba0126d1	-0.00049267436
161	0xbaaefa95	-0.0013349826
162	0x3a5f964e	0.0008529172
163	0xbacd4375	-0.0015660363
164	0xb98ce676	-0.00026874588
165	0xbb6fba3d	-0.0036579513
166	0x3b1b4cd7	0.0023696923
167	0xba25e722	-0.0006328692
168	0x36490440	2.9953808e-06
169	0x3a22fc76	0.0006217429
170	0xba0dd5a8	-0.00054105604
171	0xbac4c3c7	-0.001501196
172	0x3a70c6f5	0.00091849203
173	0x3b3c5170	0.0028735064
174	0xbabb316a	-0.0014281694
175	0xbb5f9856	-0.00341179
176	0xbafe7631	-0.0019413886
177	0x3a4aeda3	0.0007741099
178	0x3b3896d5	0.0028166075
179	0x3b493fe1	0.003070824
180	0x3b40ede0	0.002943866
181	0x3b12e8be	0.0022416557
182	0x3b8276fb	0.0039814687
183	0xbb4e3432	-0.0031464216
184	0x3b91768c	0.0044391807
185	0xb894b3b8	-7.090665e-05
186	0xba8a0db4	-0.0010532648
187	0xbae624c0	-0.001755856
188	0x3a1a521d	0.00058868696
189	0x3ac02d80	0.0014661998
190	0x3a7eca96	0.0009719519
191	0x3aa232e1	0.0012374782
192	0x3a6db288	0.0009067436
193	0xba7c84c9	-0.00096328236
194	0x3b0aee6a	0.0021199235
195	0xb9aaa058	-0.00032544392
196	0xb977bae6	-0.0002362538
197	0x3abb002a	0.0014267017
198	0x3b4d45dd	0.003132216
199	0x395b6443	0.00020922818

pool1.graph_pool.gnn.lin_l.weight f4 [1, 200]
0	0xbd8c7f3d	-0.06860206
1	0x3d13a622	0.03604711
2	0x3d0ab500	0.03386402
3	0x3d1f8ee4	0.03895463
4	0x3cbc6439	0.022997009
5	0xbd3e633b	-0.046481352
6	0x3d878b92	0.06618418
7	0x3d54757b	0.05186985
8	0xbd137fbd	-0.036010493
9	0xbc4c006f	-0.012451275
10	0x3d8ada74	0.06779948
11	0x3d4a12ef	0.049334463
12	0xbd29a82d	-0.04142015
13	0x3c71d7ac	0.014760893
14	0x3d8831ac	0.06650099
15	0x3d85e606	0.06538014
16	0xbd231b50	-0.03982097
17	0xbb180186	-0.0023194267
18	0x3d82d9cf	0.063892
19	0x3d14f010	0.036361754
20	0xbd60e46f	-0.05490535
21	0x3bda21e3	0.0066568716
22	0x3d920713	0.071302556
23	0x3d876e08	0.06612784
24	0x3bb82e3f	0.0056207473
25	0x3cb9d000	0.02268219
26	0xbb81368c	-0.00394327
27	0xbc1f8fbe	-0.009738861
28	0x3c1d03b7	0.009583405
29	0x3d1efe9c	0.038817033
30	0xbd05d213	-0.032671046
31	0x3d6d53a6	0.0579411
32	0xbcd00118	-0.025391147
33	0xbcbec824	-0.023288794
34	0x3d6db556	0.058034264
35	0xbd02278c	-0.031775996
36	0x3d7d2ca4	0.06181015
37	0xbd808bc7	-0.062766604
38	0x3d6db4b0	0.058033645
39	0x3c47c037	0.012191824
40	0x3cdc0129	0.026856022
41	0x3d88d601	0.06681443
42	0x3d2f574d	0.042807866
43	0x3d5cd1bd	0.05391096
44	0x3d8ee595	0.06977383
45	0xbc1f6d74	-0.0097306855
46	0x3d6c8a25	0.057748932
47	0x3d888a60	0.06667018
48	0xbd82abe8	-0.06380445
49	0xbd7cfc50	-0.06176406
50	0xbc0d1dc9	-0.008613058
51	0x3cce529b	0.025185874
52	0x3d73b079	0.05949447
53	0xbc6d66eb	-0.01448987
54	0xbc00cecc	-0.007861804
55	0x3d7ed1f5	0.06221195
56	0xbbb9cf71	-0.005670481
57	0x3d629d03	0.05532552
58	0x3c3346b0	0.010942146
59	0x3d890c91	0.0669185
60	0x3c02370c	0.0079476945
61	0x3c8f8157	0.017517729
62	0xbd388e3a	-0.045057513
63	0xbd3b5e32	-0.04574413
64	0xbc9f0035	-0.019409278
65	0xbcf0e72d	-0.029407108
66	0x3cee65bd	0.029101247
67	0xbc4fde83	-0.012687328
68	0xbca783c3	-0.020448571
69	0x3c669183	0.014072779
70	0x3d5076e2	0.050894625
71	0xbd04ab0b	-0.03238968
72	0xbd2880ec	-0.041138574
73	0x3cc4f3a9	0.024041967
74	0x3cde27ea	0.027118642
75	0x3bea3103	0.007146956
76	0x3cf24fa6	0.029578995
77	0xbd60e741	-0.05490804
78	0xbd21e9fe	-0.039529793
79	0xbc540d59	-0.012942635
80	0xbc93cea0	-0.018042862
81	0xbd2455ad	-0.04012077
82	0x3d17e25f	0.03708112
83	0xbd66010f	-0.056153353
84	0xbd0768ea	-0.03305904
85	0x3d42e884	0.047585025
86	0x3c93ad52	0.018026982
87	0x3d1644c2	0.036686666
88	0xbd38f257	-0.04515299
89	0xbd6453f9	-0.055744145
90	0x3d907697	0.07053869
91	0x3d13b5df	0.036062118
92	0xbd96fee7	-0.073728375
93	0xbd96f934	-0.073717505
94	0xbcb38fc1	-0.021919133
95	0xbd02512b	-0.03181569
96	0xbd8927dd	-0.066970564
97	0x3d64ae43	0.05583025
98	0xbcee90e7	-0.02912183
99	0xbd00d808	-0.031456023
100	0x3d4b0dff	0.049573895
101	0x3cab6702	0.020923141
102	0xbc18ad9c	-0.009318735
103	0xbd871e07	-0.06597524
104	0x3c7c3466	0.015393352
105	0x3c23fe6a	0.0100093875
106	0xbd713dcf	-0.058896836
107	0xbcf0b415	-0.029382745
108	0x3d87f4ed	0.06638513
109	0x3c7debf2	0.015498148
110	0x3d8ba8c3	0.06819298
111	0x3d81dbbf	0.06340741
112	0xbd45d1f5	-0.048295934
113	0xbd277f1f	-0.040892716
114	0x38bca7e0	8.995808e-05
115	0x3d47a9d0	0.04874593
116	0x3d84419d	0.06457827
117	0xbd5f841a	-0.05456934
118	0xbd7e36f7	-0.062064137
119	0x3bfd8a95	0.0077374675
120	0xbd4889ea	-0.04895965
121	0x3d15757e	0.036489002
122	0x3bde7dfd	0.0067899213
123	0x3d7c6ed9	0.06162915
124	0xbd57c8c2	-0.052681692
125	0x3d4f6ecc	0.050642774
126	0x3c276bce	0.010218574
127	0x3d362a72	0.044474073
128	0xbd1877e7	-0.037223723
129	0xbd097aa2	-0.033564217
130	0xbd130aac	-0.03589885
131	0x3d81d84f	0.06340086
132	0xbc1d004a	-0.009582588
133	0x3c40a666	0.0117584225
134	0xb89c96a0	-7.466716e-05
135	0xbcdc2ee0	-0.02687782
136	0x3d5fd691	0.054647986
137	0xbd09ca92	-0.03364045
138	0x3cb37d8f	0.021910457
139	0x3b015cd4	0.0019739168
140	0x3cc6251a	0.024187613
141	0x3d12e7f9	0.035865758
142	0x3ceff49c	0.029291444
143	0x3d0f14f7	0.034932103
144	0x3d432817	0.047645655
145	0x3cd4bbff	0.02596855
146	0x3cdb7669	0.02678986
147	0x3cd64a30	0.026158422
148	0x3b83d93a	0.004023698
149	0x3d2dc8b2	0.042427726
150	0x3d0c9eec	0.034331247
151	0x3d01fe46	0.031736635
152	0x3ca28053	0.01983658
153	0xbc4d3450	-0.012524679
154	0x3b6e8fbf	0.0036401597
155	0xbd1300f9	-0.0358896
156	0xbccd3b14	-0.025052585
157	0xbca5ac0b	-0.020223638
158	0xbd33eb51	-0.043925587
159	0xbcd94b8a	-0.026525278
160	0x3d6cabbc	0.057780966
161	0x3d88e100	0.0668354
162	0xbd74291e	-0.059609525
163	0xbcd6db83	-0.026227718
164	0x3d2913df	0.041278716
165	0xbd106f4e	-0.0352624
166	0x3bb79258	0.0056021623
167	0x3d59e5e1	0.053197745
168	0xbd04d3db	-0.032428604
169	0x3c9a3be6	0.01882739
170	0xbc842798	-0.016132161
171	0xbd47cc5d	-0.04877888
172	0xbcecd569	-0.028910356
173	0xbcc74ca0	-0.02432853
174	0x3d1dad7f	0.038495537
175	0xbd757ad9	-0.05993161
176	0x3b4c2566	0.003115022
177	0xbd7f520a	-0.062334098
178	0xbb548260	-0.0032426342
179	0x3d10ef82	0.035384662
180	0xbcdfae91	-0.02730492
181	0xbd3187b8	-0.043342322
182	0xbc25b934	-0.010114957
183	0x3d7086e2	0.058722384
184	0xbcfc13b8	-0.030771121
185	0x3d60f3f4	0.05492015
186	0x3d4db3d3	0.050220322
187	0x3d31865c	0.043341026
188	0x3b916a52	0.004437723
189	0x3d5d70e6	0.054062746
190	0x3d6e31ea	0.05815307
191	0xbd6cb639	-0.05779097
192	0x3ca3a19c	0.019974522
193	0x3c8afc1c	0.016965918
194	0xbd498193	-0.049195837
195	0x3bbafaf4	0.0057061855
196	0x3cd88459	0.026430296
197	0xbd1c155b	-0.038106304
198	0xbd3eaa53	-0.046549153
199	0x3d4cf93f	0.050042387

pool1.graph_pool.gnn.lin_r.weight f4 [1, 200]
0	0xbd11012b	-0.035401504
1	0x3cc84601	0.024447443
2	0xbd7214d1	-0.059101883
3	0xbcba186d	-0.022716725
4	0x3cf01867	0.029308511
5	0xbd5fac1f	-0.054607507
6	0x3cc9c4be	0.024629947
7	0x3d03da4d	0.03219061
8	0x3c4fc5d3	0.012681442
9	0xbc2ae315	-0.010430117
10	0xbd503429	-0.050830994
11	0xbd59d104	-0.05317785
12	0xbd042285	-0.032259483
13	0xbcec606f	-0.028854577
14	0x3c88222e	0.01661786
15	0xbd22e8b0	-0.03977269
16	0xbc7fbfd9	-0.015609705
17	0xbc89a242	-0.016801003
18	0x3d8a40bf	0.067506306
19	0xbbf79a49	-0.007556234
20	0x3d1577f4	0.03649135
21	0xbd8b0a13	-0.06789031
22	0xbd02d5ce	-0.03194218
23	0x3d92e787	0.071730666
24	0x3c681bcb	0.014166783
25	0x3d66ff27	0.056395676
26	0xbd2a7d39	-0.041623328
27	0x3c2b8d36	0.010470679
28	0xbd4709f5	-0.04859348
29	0xbd162c46	-0.036663316
30	0xbd18ab5b	-0.037272792
31	0xbd3ed0ba	-0.046585776
32	0xbd417dd0	-0.047239125
33	0xbd845e59	-0.06463308
34	0x3b96eed2	0.0046061063
35	0xbd69446f	-0.05695003
36	0x3cad078a	0.021121759
37	0x3d40e9eb	0.04709808
38	0x3d484201	0.04889107
39	0xbd157fe5	-0.036498923
40	0xbd96c47f	-0.073616974
41	0xbd0f1348	-0.034930497
42	0xbc070cde	-0.008242814
43	0xbd2e99ba	-0.042627074
44	0x3d59b3b3	0.05314989
45	0x3ce601c4	0.028077014
46	0x3d734880	0.059395313
47	0x3d1ea826	0.038734578
48	0x3d833670	0.064068675
49	0xbd6cd5e6	-0.057821177
50	0x3d073514	0.033009604
51	0x3d7852d5	0.06062587
52	0x3d44b617	0.048025217
53	0x3c8dac84	0.017294176
54	0x3d147d9b	0.0362526
55	0xbbade346	-0.005306634
56	0xbd908824	-0.07057217
57	0x3d08a2e5	0.033358473
58	0x3d3d40f9	0.04620454
59	0xbc12bc02	-0.008955957
60	0xbd203683	-0.039114486
61	0xbc9120fe	-0.017715927
62	0x3ccb7699	0.024836825
63	0x3c6f1990	0.014593497
64	0xbd43ae7b	-0.04777382
65	0xbd13b752	-0.0360635
66	0xbc9cfe11	-0.019164117
67	0x3d80b9a8	0.06285411
68	0xbd06a22b	-0.0328695
69	0xbca69c1b	-0.020338109
70	0xbcd8e6c9	-0.026477234
71	0xbd20a0e4	-0.039215937
72	0xbd420d51	-0.04737598
73	0xbc1e9b1a	-0.009680534
74	0xbc839954	-0.016064323
75	0x3c80e7dd	0.015735561
76	0xbc8423e9	-0.016130405
77	0xbc8b0247	-0.01696886
78	0x3c4a1ac8	0.012335487
79	0xbd750e09	-0.059827838
80	0xbba55171	-0.005045109
81	0xbd79bd9c	-0.06097184
82	0xbbe25659	-0.006907266
83	0xbcdb4931	-0.026768299
84	0xbc46b817	-0.012128851
85	0x3d70d913	0.058800768
86	0x3d73d50e	0.059529357
87	0x3d84c7ae	0.064833984
88	0xbd4990bc	-0.049210295
89	0xbca535f9	-0.020167338
90	0x3d75b969	0.059991274
91	0xbd46c323	-0.04852594
92	0x3cc7bb09	0.024381177
93	0xbd009b26	-0.03139796
94	0x3d3585e3	0.044317137
95	0x3d5a19ef	0.05324739
96	0xbc01e6d9	-0.0079285735
97	0xbd5d54ae	-0.054035835
98	0xbc9db66d	-0.019252026
99	0xbd105934	-0.03524132
100	0x3c03777c	0.008024093
101	0x3c12637a	0.00893485
102	0x3d1c9184	0.038224712
103	0x3cbafb16	0.022824805
104	0xbd2a2c9b	-0.041546445
105	0xbd770296	-0.0603052
106	0x3d876c5a	0.06612463
107	0xbcb248be	-0.021763202
108	0xbd13007d	-0.035889138
109	0xbd0d710c	-0.034531638
110	0xbd843c25	-0.06456784
111	0xbc8bc7f5	-0.01706312
112	0xbbdc16ff	-0.0067166085
113	0xbd2b821a	-0.04187212
114	0x3d48bf87	0.04901078
115	0x3d43ce52	0.047804184
116	0xbcde8905	-0.027164945
117	0xbc6b6ca7	-0.014369166
118	0xbcc350ec	-0.023842297
119	0x3cc747cd	0.02432623
120	0x3cf26f66	0.029594135
121	0x3d94a8d3	0.07258763
122	0x3d424c74	0.047436193
123	0xbd4a5d69	-0.04940549
124	0x3c753542	0.014966311
125	0xbb8f949a	-0.0043817284
126	0xbd33d862	-0.04390753
127	0x3ccf2948	0.02528824
128	0x3d5ce9a2	0.053933747
129	0x3d7784a0	0.060429215
130	0xbd757121	-0.05992234
131	0x3b2ae996	0.002607917
132	0x3cdc6593	0.026903903
133	0x3d7c8f7a	0.061660267
134	0xbd2b2753	-0.04178555
135	0xbcba65e6	-0.022753667
136	0x3c088dc7	0.008334584
137	0x3c67fb53	0.014159041
138	0xbd856b69	-0.065146275
139	0x3d5afe7b	0.053465348
140	0xbae4ac7c	-0.0017446424
141	0x3d20adb3	0.039228152
142	0xbc621ec8	-0.013801284
143	0xbcf09d57	-0.0293719
144	0xbd00b02c	-0.03141801
145	0x3cab0014	0.02087406
146	0xbd4af183	-0.04954673
147	0xbd658437	-0.056034293
148	0xbcbf606b	-0.023361405
149	0xbd4ef3bb	-0.05052541
150	0xbc88c6de	-0.01669639
151	0xbd572892	-0.052528925
152	0xbd11b1b9	-0.03556988
153	0x3d62deb3	0.055388164
154	0x3c253bc2	0.010085048
155	0xbce3b806	-0.02779771
156	0x3d7e41af	0.06207436
157	0x3cdfadee	0.027304616
158	0xbd89500c	-0.06704721
159	0xbc34d2eb	-0.011036615
160	0xbd6dd61a	-0.05806551
161	0xbd3c6902	-0.04599858
162	0xbcab09f8	-0.020878777
163	0xbcf2d2a4	-0.029641457
164	0xbcd0c836	-0.025486093
165	0xbc7849c6	-0.015154308
166	0x3d8495e2	0.064739004
167	0x3c8d8eb0	0.017279953
168	0xbd37d107	-0.04487708
169	0x3d7e7fe0	0.06213367
170	0xbc3e6566	-0.011620855
171	0xbd3d9e9e	-0.046293847
172	0xbd20bf9c	-0.039245233
173	0x3d7cdb22	0.06173242
174	0xbcd2d27e	-0.025735136
175	0x3d2be16a	0.04196302
176	0xbd71ff53	-0.059081387
177	0xbd6b3859	-0.057426784
178	0xbcc09a75	-0.02351115
179	0x3bc05040	0.0058689415
180	0xbd4c76da	-0.049918033
181	0x3d85f285	0.065403976
182	0x3b2fafdf	0.0026807708
183	0xbc6b6e32	-0.014369534
184	0xbd84246f	-0.06452262
185	0xbc719bf4	-0.014746655
186	0xbcdd7c95	-0.027036944
187	0xbd174a5f	-0.03693616
188	0x3d06ec64	0.032940283
189	0x3d4a966c	0.04945986
190	0xbc96b287	-0.018395675
191	0xbd7470c0	-0.05967784
192	0x3d3ebd00	0.046566963
193	0x3d59bf59	0.053161
194	0x3c66459e	0.014054684
195	0x3aa27ff6	0.0012397754
196	0xbc8c6ff4	-0.017143227
197	0x3d0a9e18	0.033842176
198	0xbd75c27e	-0.059999935
199	0x3d1582f8	0.036501855

fc.weight f4 [2, 200]
0	0x3c1ed865	0.009695147
1	0xbd916e50	-0.071011186
2	0xbceecba9	-0.029149847
3	0xbc00c66d	-0.007859808
4	0x3d7ff411	0.06248862
5	0x3d5ec7b1	0.05438966
6	0xbd0494b9	-0.032368395
7	0xbcaf2b44	-0.021382935
8	0xbca1ce8b	-0.019751808
9	0xbb72e34b	-0.0037061747
10	0x3c9d5499	0.019205378
11	0x3c3011a0	0.01074639
12	0xbd2f355b	-0.042775493
13	0x3cfd310c	0.030907176
14	0x3cad0341	0.021119716
15	0x3cd76bab	0.026296457
16	0x3c3b27f7	0.011423103
17	0x3d24dcb7	0.040249553
18	0xbd1486e1	-0.036261443
19	0xbd0d8899	-0.034554098
20	0x3d7f4460	0.062321067
21	0xbd85c689	-0.06532008
22	0x3d1abec9	0.037779603
23	0x3b79d04a	0.0038118535
24	0xbbc78252	-0.0060885334
25	0xbd8515a8	-0.06498271
26	0x3c1b3756	0.009473642
27	0xbd26734e	-0.040637307
28	0xbcaf27e9	-0.021381335
29	0x3c981cae	0.018568363
30	0xbc7143c7	-0.014725632
31	0x3d49d648	0.04927662
32	0x3d00bf8f	0.031432685
33	0xbc8eecf2	-0.017446969
34	0xbd3d9a57	-0.046289768
35	0xbb6b0b5c	-0.0035864925
36	0x3d57e83d	0.052711714
37	0x3d639a12	0.055566855
38	0x3d197261	0.037462596
39	0xbd876c99	-0.0661251
40	0xbd882ff0	-0.06649768
41	0x3c58ba13	0.013227957
42	0x3c453a58	0.012037836
43	0xbd5e102b	-0.054214638
44	0x3d713789	0.058890853
45	0xbb99b227	-0.004690427
46	0x3c9144a3	0.017732924
47	0x3ca317f4	0.019908883
48	0x3d83cb5d	0.06435273
49	0xbd6131d1	-0.05497915
50	0xbc7f19f0	-0.015570149
51	0x3c6ea2a9	0.014565148
52	0x3c5379e3	0.012907478
53	0x3d384f3e	0.044997446
54	0x3c82af9f	0.015952883
55	0x3c4691ff	0.012119769
56	0x3d1c4895	0.038155157
57	0xbd82b42c	-0.06382021
58	0xbb3ea9ca	-0.0029092901
59	0xbd8371e2	-0.06418206
60	0xbcfd8598	-0.030947492
61	0x3cd373ce	0.025812056
62	0xbca5a78b	-0.020221492
63	0xbb9ad7cd	-0.0047254325
64	0xbbf53d19	-0.00748409
65	0xbd627dfe	-0.055295937
66	0x3d628de8	0.055311114
67	0xbd2e24a0	-0.042515397
68	0x3d2c93aa	0.04213301
69	0x3cc19e8c	0.023635171
70	0x3d8db5e9	0.06919462
71	0xbd266bac	-0.040630028
72	0x3ad66113	0.0016355835
73	0xbd8f0eb0	-0.06985223
74	0xbbd43d64	-0.006477045
75	0x3b467270	0.0030280612
76	0x3cb4e4d4	0.02208177
77	0xbd80263e	-0.06257294
78	0x3c73bdf3	0.01487683
79	0xbd3db0f6	-0.04631134
80	0xba12d600	-0.00056013465
81	0x3d2062f8	0.039156884
82	0x3d062fb5	0.03276034
83	0x3d49c629	0.049261246
84	0x3ccddb31	0.025128933
85	0xbd4270ab	-0.04747073
86	0x3af510e5	0.0018697052
87	0x3d4cf938	0.05004236
88	0x3ce9f04d	0.028556967
89	0xbd1e3092	-0.03862054
90	0xbd7b7478	-0.06139037
91	0x3bd7eb5e	0.0065893373
92	0x3a65b216	0.00087621936
93	0x3cca0fa8	0.024665669
94	0xbc5c7dcd	-0.013457728
95	0xbd858f5a	-0.06521483
96	0xbd37e8af	-0.04489964
97	0xbced484c	-0.028965138
98	0xbd8b6541	-0.06806422
99	0xbd62ae26	-0.055341862
100	0x3d8636eb	0.065534435
101	0xbced91fd	-0.029000277
102	0xbd14d187	-0.036332633
103	0xbd10fdd7	-0.03539833
104	0x3d80ab52	0.06282677
105	0x3d47b0ad	0.048752476
106	0x3b52761c	0.0032113856
107	0xbd2f4a9f	-0.042795774
108	0x3d302823	0.043007027
109	0x3cae6094	0.021286286
110	0xbc90694d	-0.017628336
111	0xbd50ce62	-0.050978072
112	0xbc1c95f9	-0.009557241
113	0xbd87dcf8	-0.06633943
114	0xbd13594c	-0.035973832
115	0xbd0f2e00	-0.03495598
116	0xbc178bcb	-0.009249638
117	0xbc96837a	-0.01837324
118	0x3d3d5301	0.046221737
119	0xbc857cbd	-0.016294831
120	0x3d154a7b	0.036447983
121	0x3cf369db	0.029713562
122	0x3d0fa6f3	0.035071325
123	0x3a499082	0.0007689075
124	0xbc2d5295	-0.010578771
125	0x3ba182a8	0.0049289055
126	0xbd80ea30	-0.06294668
127	0x3568ee00	8.677307e-07
128	0x3d1014af	0.035175975
129	0x3d2fe865	0.042946238
130	0xbd899ff7	-0.06719964
131	0x3caac4d2	0.020845804
132	0x3d0f68da	0.035012104
133	0xbcb36a07	-0.021901144
134	0xbcedf3c1	-0.029046895
135	0x3d2c6ec3	0.042097818
136	0xbb476558	-0.0030425396
137	0x3d5545fb	0.05206869
138	0x3ca90289	0.020631092
139	0x3d360859	0.044441555
140	0x3d7c37ef	0.06157678
141	0xbd68269f	-0.056677457
142	0x3cf27bc6	0.029600035
143	0xbc78e1d7	-0.015190563
144	0x3d0be0d5	0.034149963
145	0xbd16f180	-0.036851406
146	0x3ccd0d79	0.025030838
147	0xbb7b06fa	-0.003830372
148	0xbd7a6be9	-0.061138067
149	0x3c21d22b	0.009876768
150	0xbd852e21	-0.06502939
151	0x3d20b724	0.039237157
152	0xbd539547	-0.051656034
153	0xbd4b58ff	-0.04964542
154	0x3d67d55a	0.056599952
155	0xbd1a4f2f	-0.03767317
156	0xbcaa8bda	-0.02081864
157	0xbc347bc1	-0.011015833
158	0x3d8c699a	0.068560794
159	0xbd73e5de	-0.05954539
160	0x3d3f29ce	0.046670727
161	0x3d00a125	0.03140368
162	0xbd0496f3	-0.03237052
163	0x3d47f373	0.048816156
164	0xbcad8339	-0.021180736
165	0xbd84c1e3	-0.064822935
166	0x3c811f4e	0.015761998
167	0xbbe8aa98	-0.0071004145
168	0x3b293347	0.0025817917
169	0xbc0f9f85	-0.00876606
170	0x3cb6d1d9	0.02231686
171	0xbbe4e8b1	-0.006985747
172	0xbc406b15	-0.01174428
173	0xbd7cf9fd	-0.061761845
174	0x3d18cc33	0.037304115
175	0xbd85e4bd	-0.06537769
176	0x3d488d31	0.048962776
177	0xbcfe81f3	-0.031067824
178	0xbc182579	-0.009286278
179	0xbd69a7c9	-0.057044778
180	0xbcd467c8	-0.025928393
181	0xbcf7266b	-0.030169686
182	0x3bf773b9	0.007551637
183	0xbd31d363	-0.043414485
184	0x3c9d7b6f	0.019223897
185	0xbd39416c	-0.045228407
186	0x3ae49515	0.001743945
187	0x3d588a48	0.05286625
188	0xbc003a66	-0.007826423
189	0xbd61f8f0	-0.055169046
190	0xbd82250a	-0.06354721
191	0x3c3272b1	0.010891602
192	0xbd5dade0	-0.0541209
193	0xbbeceb93	-0.007230231
194	0xbd2a8ccc	-0.04163818
195	0xbd11db29	-0.035609398
196	0x3d0f1d35	0.034939963
197	0xbd04f27b	-0.03245781
198	0x3c5c5fbc	0.013450559
199	0x3d8a69d7	0.067584686
200	0xbd246de5	-0.040143866
201	0x3ca6a067	0.020340158
202	0x3cc35056	0.023842018
203	0xbd00d071	-0.031448785
204	0xbcd34185	-0.025788078
205	0x3bc43e00	0.0059888363
206	0xbc822fab	-0.01589187
207	0x3d2ad66a	0.041708387
208	0x3d338b46	0.043833993
209	0x3d5b370b	0.05351929
210	0x3d8b89f5	0.068134226
211	0xbd8ae83d	-0.06782577
212	0xbd7cc319	-0.061709497
213	0x3c32e334	0.010918427
214	0xbd0593a9	-0.032611523
215	0x3d900a4e	0.070332155
216	0x3d64a3ef	0.0558204
217	0x3d85a06c	0.06524739
218	0x3b049345	0.002022938
219	0xbd905cd8	-0.070489585
220	0xbd1fc28c	-0.039003894
221	0x3d767851	0.060173336
222	0xbca154b0	-0.019693702
223	0x3d842fc8	0.06454426
224	0xbd8cafb4	-0.0686945
225	0xbbef744e	-0.007307566
226	0x3d836a3e	0.064167485
227	0xbd818827	-0.06324797
228	0xbc31e1a7	-0.010857022
229	0x3cfaad2e	0.030600157
230	0xbd118952	-0.03553135
231	0x3d3172d2	0.04332239
232	0x3d52342b	0.051319283
233	0x3c928d87	0.017889751
234	0xbd032aaa	-0.03202311
235	0xbd7c85eb	-0.06165115
236	0x3d20850c	0.039189383
237	0x3ca2c9d8	0.019871637
238	0x3d3d88af	0.04627293
239	0x3cd8db09	0.026471632
240	0xbd0ffa5e	-0.035150878
241	0xbd78d306	-0.060748123
242	0xbba74783	-0.0051049604
243	0x3d83171b	0.064008914
244	0x3b8bea54	0.0042698774
245	0xbd4c1523	-0.049824845
246	0xbd696864	-0.05698432
247	0x3d498c1f	0.049205896
248	0x3b9f85a6	0.004868227
249	0xbd1210ef	-0.03566068
250	0xbc50a656	-0.01273497
251	0x3d756365	0.059909243
252	0x3d32ce60	0.043653846
253	0x3c84655d	0.016161615
254	0xbd564ec2	-0.052321203
255	0xbc85ded6	-0.016341608

fc.bias f4 [2]
0	0xbd3dc4e8	-0.046330363
1	0xbd58e7bb	-0.05295537
